3D_Isotropic_Beam_Model_4.55E+05_9962.tar (torch, 174294 bytes, 37 tensors)

0.weight f4 [64, 3]
000000 f5 d3 59 3e 9b f7 fe be b9 2c 49 be 2a 7d 0a bf
       0.21272261 -0.49798283 -0.19645967 -0.54097235
000010 9a a5 b4 3e f0 92 86 3d 79 df 9f be 72 af c2 3d
       0.35282594 0.06570995 -0.31225184 0.0950612
000020 ce a9 26 bd 0e 77 70 3e 1a fa dd 3d a2 c2 cd 3a
       -0.040689282 0.23482916 0.10838719 0.0015698264
000030 4e 4c 8a be 46 2b 47 be 8c 7b ce 3e 13 94 80 3d
       -0.2701134 -0.19450101 0.40328634 0.06278243
000040 d3 76 93 bd f9 c2 00 bf 28 c4 92 3c 46 3e d3 be
       -0.07200398 -0.50297505 0.0179158 -0.41258448
000050 e3 f7 96 be 15 a4 11 3e 43 93 a2 3e 95 fc 0a 3f
       -0.29485998 0.14222749 0.31752977 0.5429166
000060 ae 5b 01 bf e8 a5 eb 3e 06 6e df 3e 01 ed 11 3f
       -0.5053052 0.46025014 0.4363863 0.57002264
000070 fe 58 0b bf ed 76 3a 3e 1e 31 b5 bd cd bf 05 3f
       -0.54432666 0.18209429 -0.08847259 0.5224579
000080 2e 29 ea be c2 79 a6 be bf a0 84 3e 0a be 3e bd
       -0.45734543 -0.3251477 0.2590389 -0.046567954
000090 51 d1 f8 be a7 36 cf 3e cd 84 f3 3e e4 53 e7 be
       -0.48597196 0.40471384 0.47562256 -0.4518119
0000a0 db cb 1d be 71 8a df 3d 4d 8e b9 3e a0 e3 9b 3e
       -0.15409796 0.109150775 0.3624138 0.30447102
0000b0 dd ae 44 3c bf 2d 3e 3e 54 c2 05 3f f1 9a 9b 3e
       0.012004581 0.18572138 0.52249646 0.30391648
0000c0 7a e4 d3 be 32 22 b6 be 46 ff df 3d 5b 0f 97 be
       -0.4138525 -0.35572964 0.109373614 -0.29503903
0000d0 41 7a 09 3f 26 ce c7 3e da 48 d6 be b4 9e 8f be
       0.5370217 0.39024466 -0.41852456 -0.28050768
0000e0 f2 9f 96 bd ec 19 49 3e 8b ba 09 bf 61 30 fc 3e
       -0.07354726 0.19638795 -0.53800267 0.4925566
0000f0 1a 85 a0 be ad b3 2d 3e 16 33 67 3e 98 34 f1 3d
       -0.31351548 0.16963072 0.22578081 0.117776096
000100 02 cb 9a 3e 39 d4 c8 3e 07 0b fe be f1 78 c4 3d
       0.30233008 0.39224413 -0.49617788 0.0959338
000110 84 47 c0 3e 70 c4 66 3e 6d bc dd 3e f0 64 3c 3e
       0.37554562 0.22535872 0.4330782 0.1839788
000120 2d 27 0f 3f e2 87 49 be 9a f4 e4 be 90 64 b5 3e
       0.5591915 -0.19680741 -0.44717866 0.35428286
000130 f0 81 48 be 86 7f a5 bd 97 82 4f 3d a4 bd 03 bf
       -0.19580817 -0.08080964 0.05066165 -0.51461244
000140 25 61 b3 3e 7b a6 00 bf 58 9a 89 bd 77 ee ff 3e
       0.35035053 -0.5025403 -0.06718892 0.49986622
000150 40 20 eb 3e 6f 78 94 bd 16 c8 87 be 88 5e 52 3e
       0.45923042 -0.072495334 -0.2651984 0.20543873
000160 71 f9 f3 be 3e d2 b6 be 5c 87 91 3e 10 74 0f bf
       -0.47651246 -0.35707277 0.28423584 -0.5603647
000170 3b 41 5d be e7 e0 82 3e ee a2 6b be d5 9f bc 3e
       -0.21606915 0.25562212 -0.23011371 0.36840692
000180 92 5c 57 be de 62 7f be 0b 60 71 bd 00 8b 02 bf
       -0.21031407 -0.24940059 -0.058929484 -0.5099335
000190 79 64 72 3d a8 0d 80 3e 46 98 eb 3e 00 4a 04 3f
       0.05917785 0.2501042 0.46014613 0.51675415
0001a0 2c 9b ab 3d d3 8f dc bc 09 29 a4 bc 76 fa d4 be
       0.08379206 -0.02692405 -0.020039098 -0.41597337
0001b0 a4 cb a9 3d f6 08 8d 3e b6 9b db 3e 03 ad 76 be
       0.082907945 0.275459 0.42892236 -0.24089436
0001c0 eb 8a 02 bf 28 b6 c8 3e e3 5c c7 3e f7 9b 38 3e
       -0.5099322 0.39201474 0.38938054 0.18028246
0001d0 aa f3 e3 be 09 32 be 3e da 1f cf 3e 8f 42 ff 3e
       -0.44521838 0.3714755 0.40453988 0.49855468
0001e0 62 6f 14 3e 93 23 34 3e ad a9 8b 3e 82 1c e1 3e
       0.14495614 0.17591695 0.2727789 0.43967062
0001f0 37 81 ef 3d 2d c5 03 3f ca b5 ed 3e 03 97 75 3d
       0.11694568 0.5147274 0.46427757 0.05995847
000200 17 5f 24 be e4 e1 87 bc 18 53 b1 3e 5f 22 a2 bd
       -0.16051899 -0.016587205 0.34633708 -0.07916712
000210 dd d3 b8 be 68 ae fe be 91 ee e4 bc 1c 1a f7 3e
       -0.3609914 -0.49742436 -0.027945789 0.48262107
000220 de b9 b1 be da c7 c9 3e 66 1e a2 3e 9c b5 b6 3e
       -0.34712118 0.39410287 0.31663817 0.35685432
000230 67 56 06 bf 14 b0 56 bc 2f 44 02 3f e4 a9 d0 3c
       -0.5247559 -0.013103504 0.5088529 0.025471635
000240 ab 9e 07 3c d9 21 fb 3d 5e f0 6b 3c a0 ae 39 3e
       0.0082775755 0.12262315 0.01440057 0.1813302
000250 4c 41 f0 3e 1e 9d 00 bf 67 a0 f8 be eb 1a 75 be
       0.46924818 -0.5023974 -0.48559877 -0.2393605
000260 c5 9a d6 3e ea 93 18 3e 5a 43 08 3f a3 7f 8d be
       0.41914955 0.14900175 0.5322777 -0.27636442
000270 50 d5 07 bf 92 71 83 be ba d4 e8 be 90 f6 4f bd
       -0.53059864 -0.25672585 -0.45474797 -0.05077225
000280 e8 a8 9e be ae 72 4e be 48 53 db be 68 9a a5 3e
       -0.3098824 -0.20160934 -0.42836976 0.32344365
000290 ff 72 85 3e 8a 6b 9c 3e e5 77 7b bc b0 d6 81 be
       0.26064298 0.30550796 -0.015348409 -0.25359106
0002a0 fb b3 9e 3e 34 c9 19 bd db 82 14 3c 17 a5 4a be
       0.3099669 -0.037545398 0.0090644015 -0.1978954
0002b0 b2 cd 61 3e 3b e5 f7 be cb 12 70 be e0 67 f7 be
       0.22051123 -0.48417076 -0.23444669 -0.48321438
0002c0 d2 e6 75 3d af 7d 73 3e f1 8f 91 be f8 28 b9 be
       0.06003458 0.23778413 -0.2843013 -0.3616407
0002d0 e8 a0 6c be a4 af eb 3e a1 e1 74 be 57 6a d7 be
       -0.23108256 0.4603244 -0.23914196 -0.42073318
0002e0 5d 72 d0 be 7e e5 e0 bd 4f 12 ce be 29 62 ad be
       -0.40712252 -0.10981272 -0.40248343 -0.33863953
0002f0 f1 4b 66 be 2d 51 8e be 19 54 0d 3f a7 02 0d 3e
       -0.22489907 -0.27796307 0.5520645 0.13770543

0.bias f4 [64]
000000 a5 c0 8d be db d4 b0 3e a1 62 02 3f 45 45 bd 3e
       -0.2768604 0.34537396 0.50931746 0.3696691
000010 d3 6f aa be bb 85 0c 3c e8 63 07 3f f9 be de be
       -0.3328844 0.008576806 0.5288682 -0.43505076
000020 33 e4 07 bd 4a be f1 be 1e 85 1b be b1 50 31 be
       -0.033176612 -0.47215492 -0.15187499 -0.17315938
000030 65 30 08 3f 19 1e 12 bf 35 3d 05 bf 20 31 02 bf
       0.53198844 -0.57077175 -0.5204652 -0.5085621
000040 16 d2 14 3e 5a 6b ca bd 20 11 13 be 78 14 9e 3e
       0.14533266 -0.09883757 -0.14362001 0.3087499
000050 1b 7d 05 3f a6 ab bd 3e b2 38 ed 3e 9a d3 13 3e
       0.5214402 0.3704502 0.46332318 0.14436188
000060 1d 06 10 3f 27 18 c6 be 4d e5 d2 3c f4 51 fe 3e
       0.5625933 -0.38690302 0.025744105 0.496719
000070 1d 23 9a be 96 cb 13 bf 3d 31 33 3e 39 e6 02 3f
       -0.30104914 -0.5773252 0.17499252 0.5113254
000080 6d 3f b9 be c3 9d 48 bd db 1f 12 3f 1a ad 05 be
       -0.36181203 -0.04897858 0.5707986 -0.13054314
000090 cb 6f f9 be d5 4d 96 3e 43 49 4e bd 64 09 80 be
       -0.48718104 0.29356256 -0.050362837 -0.25007164
0000a0 6b 8d f8 3e cc 1d f3 be f0 be fa 3e 5c de 10 3f
       0.48545393 -0.4748367 0.489738 0.56589293
0000b0 b1 35 27 3d 93 5d 94 be fe 2d 63 be 20 de 8c 3e
       0.04082269 -0.2897764 -0.22185513 0.27513218
0000c0 23 35 9a be ba d4 92 3e 24 46 9a be 74 cb e6 3d
       -0.30118665 0.28677922 -0.30131638 0.11269274
0000d0 2c 9d 49 3d 42 c2 d0 be 84 ab eb be 0a e2 cd 3e
       0.049222156 -0.40773207 -0.46029294 0.40211517
0000e0 37 9d 67 3c 7c be e6 be bf 96 01 3f ce 13 08 bf
       0.014136604 -0.45067203 0.50620645 -0.5315522
0000f0 db 87 cf 3d 75 3f df 3e a5 99 e2 be 6e cf 80 be
       0.10133334 0.436031 -0.44257846 -0.25158256

1.weight f4 [64, 64]
000000 99 50 ca bd 0d 76 f2 3d ca 96 2b bd 54 2f 6f bd
       -0.09878654 0.11838923 -0.04189185 -0.058394745
000010 f1 b8 b0 bd c8 0f 21 bb 6c 00 69 3d a4 2f 53 3d
       -0.08629025 -0.0024576057 0.056885168 0.051559106
000020 e8 13 81 bd cc fe 0c be e9 3e 7d bd 31 d7 4f bd
       -0.06302625 -0.13769072 -0.061827574 -0.050742332
000030 ba 71 e9 3d 52 a2 da 3c 81 8d e6 bd 90 b4 88 bd
       0.11398645 0.026688728 -0.112574585 -0.066750646
000040 66 3f 8b bd 5f ce 86 bd f5 99 a4 bd 63 df 98 3c
       -0.06799202 -0.06582331 -0.080371775 0.018661207
000050 87 42 fb 3d 80 cc 60 3d 3b 80 23 bd c7 8b 93 39
       0.122685485 0.054882526 -0.039917212 0.00028142167
000060 88 c7 3c bb 8c a5 e5 bd 17 d3 00 3d 98 70 a3 3d
       -0.0028805453 -0.11213216 0.03145131 0.0798046
000070 7d 57 f8 bd 4a bf 1d bd 38 ed bc 3d fa 0a db bc
       -0.12126062 -0.038512506 0.092249334 -0.026738632
000080 52 c5 f6 3d 94 0a b3 bb fb 13 70 3c de 3d 62 bd
       0.120493546 -0.0054639075 0.014653201 -0.055234782
000090 9f 65 bc 3d f5 6e 94 3d 5c c7 7a 3d fd 69 9a bc
       0.0919907 0.07247726 0.06122528 -0.018849367
0000a0 9a fb 99 3d 48 31 d8 3d e8 bf a0 3d 5a 24 db 3d
       0.07518692 0.10556275 0.07849103 0.10700293
0000b0 f9 36 b4 bd d0 38 a5 3d 75 8d ba 3c 42 1b 17 bd
       -0.08799548 0.08067477 0.02277253 -0.03689123
0000c0 1f 55 05 3d 93 bf 98 3d 45 72 25 3c 20 c1 cf 3c
       0.03255188 0.07458415 0.010098045 0.025360644
0000d0 be b2 12 3c ad d9 b3 bc 6d 27 83 3c 4f a4 3f bc
       0.008953748 -0.021954382 0.01601001 -0.011696889
0000e0 7d 63 af 3d e6 46 e3 3d 55 27 4b 3d 39 be ab 3b
       0.08563898 0.11097507 0.049598057 0.005241182
0000f0 da 96 f7 3d 98 bc c2 3d 02 1f 82 3d be 68 dc bc
       0.120893195 0.09508628 0.063535705 -0.026905414
000100 8c 2b ba 3d bd b8 b4 3d 96 a7 57 3d ba 53 e1 bd
       0.09090337 0.088242985 0.052650057 -0.11002298
000110 89 a6 1e bc fa d0 d1 bd 38 fe c5 3d 29 62 89 bc
       -0.00968326 -0.10244937 0.09667629 -0.01677044
000120 5e c6 81 bd 9a 87 d2 3c 5e 57 1e 3d df 42 26 3d
       -0.06336664 0.025699425 0.03865754 0.040591117
000130 3a 7a d3 3d a3 3d 82 3d 31 3e f4 3d f9 d2 d7 3a
       0.10326047 0.063594125 0.119259246 0.0016466073
000140 bd c6 f9 3c 48 39 4d bd f4 aa 88 3d 8b 6e af 3d
       0.030490274 -0.050103456 0.06673232 0.08566006
000150 c4 ea c9 bd 25 ce d6 bd 0c a2 e5 bc 09 75 b5 3c
       -0.09859231 -0.10488538 -0.028031372 0.022150533
000160 01 ea 8e 3a 62 33 23 bd ef 98 60 bd d7 53 c2 bd
       0.0010903479 -0.039843924 -0.05483335 -0.094886474
000170 d7 c2 bc bd cd da 9d bc 95 dc db bd 62 5e aa bd
       -0.0921685 -0.019269371 -0.10735432 -0.08318783
000180 6f 66 f4 bd 56 9a d0 3d 87 4e da 3c 44 e8 c5 3d
       -0.119336 0.10185687 0.026648773 0.09663442
000190 c1 c4 a5 bd b4 7d e6 3d b4 70 92 3b 53 80 b9 bd
       -0.080941685 0.11254445 0.0044690017 -0.09057679
0001a0 94 eb a8 bd f2 09 9e 3d cf a3 fb 3c b0 eb f7 3c
       -0.08248058 0.07716741 0.030717758 0.030263752
0001b0 ab d9 a1 3d 55 1b 1e 3d 3c 50 94 bb ef 9d f9 3d
       0.07902845 0.038600285 -0.0045261662 0.121883266
0001c0 5e d0 bf bd 6e c8 fa 3d 87 43 ee 3d 29 f0 3f bd
       -0.09365915 0.1224526 0.116339736 -0.046859894
0001d0 d6 da cf bd 3a 03 a1 ba 12 8f bc 3c 2f 67 15 bd
       -0.101491615 -0.0012284287 0.02301744 -0.036475357
0001e0 d2 fe d1 bc 29 54 cb 3c a9 99 9d bd e4 7a 63 bd
       -0.025634203 0.024820404 -0.07695324 -0.05553712
0001f0 41 bd be bd 88 31 d9 3d 19 13 dd 3b 68 9e db 3d
       -0.09313441 0.106051505 0.0067466614 0.10723573
000200 0b 2b 55 3d b9 33 ca 3c 5c 5b 72 bd 18 05 8c 3d
       0.052043002 0.024682866 -0.05916916 0.06836909
000210 d7 a9 e9 3d e4 58 38 3d 1f a3 77 bc 92 38 00 3d
       0.114093475 0.045006648 -0.015114575 0.03130395
000220 fd 89 4e bd b9 43 a1 bd fb 26 1c 3d bb 5d 9d 3d
       -0.050424565 -0.07874245 0.038123112 0.07683893
000230 f8 30 cf bb 77 61 1d be c6 dd dd 3d f9 dd 6b bd
       -0.006322976 -0.15369211 0.108333156 -0.057584736
000240 05 be e2 bc 08 b8 a9 bd 2d a8 d4 3d c5 d7 09 3e
       -0.027678499 -0.08287054 0.103836395 0.13461216
000250 d6 4c ab bc 0f f7 05 bd 61 e6 34 3d d0 58 f7 3d
       -0.020910662 -0.032706317 0.04416502 0.120774865
000260 d5 55 f4 3d 69 57 a5 bd c0 29 34 3d b0 e8 69 3c
       0.11930434 -0.08073313 0.04398513 0.014276668
000270 10 34 70 bb aa 74 4e bd e1 40 3d bd 11 6d 82 bd
       -0.0036652125 -0.05040423 -0.04620445 -0.06368459
000280 43 13 96 bd 6e 95 cc 3d 55 df d3 3d cc 47 04 be
       -0.07327893 0.09989439 0.103453316 -0.12918013
000290 25 8f a7 3d fb 14 73 3c b0 c0 c1 bd cc 07 a6 bc
       0.081815995 0.014836545 -0.0946058 -0.02026739
0002a0 40 f8 81 3c bf cd 06 3d b0 fb 03 3d b4 d6 86 3d
       0.015865445 0.03291106 0.03222245 0.0658392
0002b0 9d 54 d9 bc e3 98 04 3d b5 47 6c bc 59 2e 79 bc
       -0.026529605 0.032372367 -0.014421393 -0.015208804
0002c0 3b e1 b9 3d 2f d9 1b bc e6 33 a8 bd 8e 4f 40 3d
       0.090761624 -0.00951223 -0.08213024 0.04695087
0002d0 79 de c5 3c 16 59 b9 3d 8c 3c c7 bd d4 2f be 3c
       0.024153935 0.09050195 -0.09728345 0.023216166
0002e0 8b df a4 3d 4b 9e aa bd 79 bb 6c bd d2 81 a6 3d
       0.0805045 -0.08330973 -0.057795975 0.0813023
0002f0 66 96 34 bd 15 a6 dc 3d 1b 3f 19 be 45 01 5b bd
       -0.044088744 0.10773865 -0.14965479 -0.053468008
000300 a3 54 9f bc 27 3a a0 bd 16 e5 22 bd 41 80 b9 bd
       -0.019449538 -0.07823592 -0.039769255 -0.090576656
000310 de 55 af bb eb 5b 31 3d 1e 6d ac 3d be b4 03 bc
       -0.0053508123 0.04330055 0.0841925 -0.008038698
000320 30 b2 ed 3d 54 b9 ff 3c ad 0b 21 3d 58 98 cd bc
       0.11606252 0.031216301 0.039317776 -0.025097057
000330 6f 5b 92 3d eb 23 bc 3c 69 82 79 bd df 1b de 3c
       0.07146346 0.022966346 -0.060915384 0.0271129
000340 68 a9 9f 3d 9f 0b f9 bd 44 6f 50 3d 62 88 d7 bc
       0.077959836 -0.1216042 0.05088736 -0.02631015
000350 33 2c 1e bd 65 8c b9 3c 97 ee d0 3d 1b c6 06 3e
       -0.03861637 0.022649953 0.102017574 0.13161509
000360 50 9b a7 bd d6 b4 ed 3d 44 df 3e 3d e2 9e ac bd
       -0.081839204 0.11606757 0.04659964 -0.08428742
000370 47 6d 52 bc bb 1b 92 3d e8 fa be 3c 00 3c 5f 3d
       -0.012843437 0.071341954 0.023313 0.05450058
000380 05 2d a7 3b 09 35 e0 3d 41 24 97 3d 0f fa d5 3d
       0.0051018023 0.10947616 0.07379962 0.104480855
000390 67 49 bf 3c 57 d6 2a 3d 84 0f 69 bd 9b 0b 84 bd
       0.02335043 0.041708317 -0.056899562 -0.06447526
0003a0 39 83 c4 bc 68 a3 c4 bd 94 36 68 3d cc ed 1e bc
       -0.023988353 -0.0960148 0.056692675 -0.00970025
0003b0 b3 e6 59 3d 3c 19 e8 3d e9 a0 2c 3c d9 f4 6a bc
       0.053198528 0.11332938 0.010536411 -0.014340603
0003c0 f8 c9 92 bd 53 79 e7 3d f2 6c 84 3d 00 8a ae 3d
       -0.07167429 0.11302438 0.06466092 0.08522415
0003d0 c0 81 3d bc 53 9d d8 bd 0d 2a c6 3d 5a f7 6a bb
       -0.011566579 -0.10576882 0.09675989 -0.0035853
0003e0 8c f5 4e 3c 04 ae f5 3d 24 60 21 bd 15 18 a5 bc
       0.012631785 0.119960815 -0.039398327 -0.020153085
0003f0 38 9a 13 bd 97 bd f6 bd 3a ab b2 bd e2 5b bf bd
       -0.036035746 -0.1204788 -0.08724065 -0.09343697

1.bias f4 [64]
000000 3a 80 e5 3d d1 f2 e0 bd 8d 45 d1 3d ae 50 24 be
       0.11206098 -0.109838136 0.10218344 -0.16046402
000010 4a 8d c3 3d 46 ed 33 bd 7b 42 c3 3c 93 b4 15 be
       0.09548433 -0.043927453 0.023835411 -0.14619665
000020 05 88 0c 3c c4 e5 7c 3d 3d 1f fc bd dc 3e 01 3e
       0.008577351 0.06174256 -0.12310646 0.12621635
000030 d0 7c 89 bd 71 26 22 bd 20 bd 1f bd ed de fd bd
       -0.06713259 -0.03958744 -0.038998723 -0.12396035
000040 34 c7 17 bd 6c dc 93 3d 5f 8d 27 b9 66 57 c2 3d
       -0.03705521 0.072197765 -0.00015979026 0.09489326
000050 83 5a b3 bd 40 95 ff 3b 19 a6 83 bd d3 73 6e 3d
       -0.08757498 0.0077997744 -0.06428165 0.058215927
000060 84 76 c7 3d 38 77 05 3e 0a 30 49 3e 3a 6e 7b bd
       0.09739402 0.1303376 0.19647232 -0.061384417
000070 e5 4d 78 bd d4 dc 36 bd 2e d6 43 bd f3 da 88 bd
       -0.06062116 -0.04464419 -0.04781168 -0.06682386
000080 4e 9c 07 3e ad cd cd bd d0 67 fd bd d5 6d 07 3c
       0.1324322 -0.10048995 -0.12373316 0.008265932
000090 89 1a 89 3d e4 9e ac bd 0c 78 81 bd 04 4e 0f 3e
       0.06694514 -0.084287435 -0.06321725 0.13994604
0000a0 c3 ba b3 bd 22 25 bd bc 79 ab d4 bd 4e c5 fd bc
       -0.08775856 -0.023088995 -0.10384268 -0.030977871
0000b0 c4 5b 9d 3c 0c 62 0c 3e 7b 3c b9 3d 3b ef 06 be
       0.019208796 0.13709277 0.09044739 -0.13177197
0000c0 11 9c bb bd 1f b3 80 3e a9 39 fd bc d2 bc d9 bd
       -0.09160627 0.2513666 -0.030911284 -0.10631718
0000d0 10 ad 1a 3d b6 14 44 bd da 92 08 be ac 2f 03 3e
       0.0377627 -0.047871314 -0.1333727 0.12811154
0000e0 49 ff 58 bd ae de fa 3b b9 ba 15 3e f8 4d 1d 3c
       -0.052977834 0.00765594 0.1462201 0.009601109
0000f0 0e f3 d1 bd 3c a5 f6 3d 82 17 73 bd a8 f2 74 bb
       -0.10251437 0.12043235 -0.05934859 -0.003737608

2.a f4 [1, 64]
000000 b2 e1 e2 3e 47 aa 6d 3f f3 4c ca bf 6a 80 d9 3e
       0.44312817 0.9283795 -1.5804733 0.42480785
000010 10 90 6d be 28 5a 60 3f 25 77 ab be 07 7a 2b bf
       -0.23199487 0.8763757 -0.33489338 -0.66983074
000020 5c 91 92 3e 5c 1f 1f bb a1 82 18 be 90 95 ba be
       0.28626525 -0.0024280166 -0.14893581 -0.36442232
000030 7b 9e 99 be 72 2c 97 3f 1f 96 b7 3f e5 4a 49 bf
       -0.30003724 1.1810439 1.4342688 -0.78629905
000040 44 05 db 3f b9 6e 11 3f bc b6 ad 3e 17 6a d0 be
       1.7110982 0.56809574 0.33928478 -0.4070594
000050 e3 97 be 3f c8 a7 c2 bf d5 36 79 be 72 f4 05 c0
       1.4890102 -1.5207453 -0.24337323 -2.0930448
000060 06 40 0e bf 21 0d 64 bf b1 cf 7d bf 92 7f a7 bd
       -0.5556644 -0.89082533 -0.99145037 -0.08178629
000070 95 fc ce bd 43 05 4d 3f e9 0f 34 3e ae 77 df bd
       -0.1010677 0.80086154 0.17584194 -0.10911499
000080 65 ef b1 bf 7c 22 93 bf 49 d1 83 3e b2 94 98 bf
       -1.3901182 -1.1494899 0.2574561 -1.1920378
000090 61 ff bc bd 24 7d 0c 3e 68 4d 53 be a3 b0 b6 3e
       -0.09228397 0.13719612 -0.20634997 0.35681638
0000a0 f8 2c 14 bf b2 a2 2b 3f 78 0a bf 3e a6 71 1a bf
       -0.57881117 0.6704513 0.37312675 -0.60329664
0000b0 6f 7a 63 be ce 9f 0d bf eb 7d 01 be 70 a3 9d 3f
       -0.22214673 -0.5532197 -0.1264569 1.2315502
0000c0 0a 36 a7 bb ed 45 13 bf 74 01 4a 3f 4f d2 b2 3f
       -0.0051028775 -0.57528573 0.7890847 1.3970431
0000d0 dd 88 87 be d9 18 d1 bd 22 e5 fe 3e 69 20 94 3f
       -0.26471606 -0.102098174 0.4978419 1.1572391
0000e0 61 90 ea be f0 de 89 3f 46 66 a3 be 5c b2 71 bf
       -0.45813277 1.077116 -0.31913966 -0.9441278
0000f0 44 c4 10 3a 32 7b 62 bf 54 3c 3a be f5 48 95 be
       0.000552241 -0.8846923 -0.18187076 -0.29157224

3.weight f4 [64, 64]
000000 de ca c2 3d 27 01 90 3c 2a c0 01 3e de 43 45 bd
       0.0951135 0.017578674 0.12670961 -0.048160426
000010 aa 91 bc bd 62 5c 06 3d e8 08 e2 bd 80 96 53 3d
       -0.09207471 0.032802947 -0.11036855 0.0516572
000020 b7 4d dd bc ef 88 a0 bd 33 0f 7b bd fe f2 fb bd
       -0.027014596 -0.07838618 -0.061293792 -0.123022065
000030 09 05 80 bd 4a 08 14 3e 32 f8 b3 bd c6 df 98 3d
       -0.062509604 0.14456287 -0.08787574 0.074645564
000040 ce 24 b6 3c 35 35 c6 bd a7 8a 9f bd ed b7 80 bc
       0.022234347 -0.09678117 -0.07790118 -0.015712703
000050 f1 34 ba 3d 89 13 7b 3d 69 eb a1 bd 5c e9 ae 3c
       0.09092129 0.061297927 -0.07906229 0.021351509
000060 84 53 4a 3d 71 2f db bc ad 8e 1c bd 08 87 86 3d
       0.049396053 -0.02675602 -0.038222004 0.06568724
000070 69 25 67 bd 67 5c ed bd ef 35 2e 3d 3f 77 bc 3d
       -0.05643216 -0.1158989 0.042531904 0.09202432
000080 25 9f b2 bd 99 d1 b1 bd 6d 24 36 3d 78 19 e0 3d
       -0.08721761 -0.08682556 0.044468332 0.10942358
000090 76 57 5c bd 21 22 47 3d df 44 c0 3d 00 f5 2d bc
       -0.053794347 0.048616532 0.09388136 -0.010617495
0000a0 2e c3 9f 3d 93 0e e6 bd 1d 15 52 ba b7 c8 77 3c
       0.078008994 -0.112332486 -0.00080140104 0.015123538
0000b0 a5 4e 88 3c 01 39 b2 bd 13 24 86 3d 5f 6f 48 3d
       0.016639063 -0.08702279 0.06549849 0.048934337
0000c0 75 09 53 bd 9f a3 d2 bd 62 8d 9a bc 92 1f ad bd
       -0.05152269 -0.102851145 -0.018866245 -0.08453287
0000d0 3b 7c 9d 3d e8 62 d5 bd 54 6e 07 bd 81 01 84 3a
       0.07689711 -0.104192555 -0.0330642 0.0010071249
0000e0 a1 0c 74 bd 29 46 b8 3c 3e 25 e4 3d c6 d6 b0 bd
       -0.059582356 0.022494392 0.11139916 -0.08634715
0000f0 01 97 76 3b c7 11 c4 bd e3 a4 31 3d fa d6 9a bd
       0.0037626626 -0.09573703 0.04337014 -0.07560535
000100 5b d4 d5 bc 02 3a 87 bd 5c 21 25 bb fd 9c 30 bc
       -0.026102236 -0.06602861 -0.0025196886 -0.010779616
000110 fd b6 2b 3d 40 66 69 3b 5f ff e9 3d b6 60 c9 bd
       0.041922558 0.0035613924 0.11425661 -0.09832899
000120 bf 39 b0 3d 94 b0 52 bc c5 ec 19 3e 63 e5 83 3d
       0.08604764 -0.012859482 0.15031727 0.064402364
000130 62 7e 9c bd 8b 4c 87 3d 99 31 82 bd a5 18 75 3d
       -0.07641293 0.06606396 -0.06357116 0.059837956
000140 1a 77 fb 3d dc a2 42 bd 5e 97 01 3e 51 50 bc 3d
       0.12278576 -0.047518596 0.12655398 0.09195007
000150 18 a2 80 bc 45 73 97 3d c0 bb a6 bb 25 42 18 3d
       -0.015702292 0.07395033 -0.0050882995 0.037172455
000160 d2 0e 05 bd ca eb a3 bd 3d c1 f3 3d 0b 34 cd bd
       -0.032484837 -0.080039576 0.11902092 -0.10019692
000170 90 c1 ee bd cb 79 b4 3c 70 ea c6 bc 44 9d 70 3d
       -0.11658013 0.022030732 -0.02428171 0.05874373
000180 0c 68 f5 bc 7a e5 bd 3d 8f 3d 8d 3b 93 d6 8c bd
       -0.02995684 0.09272285 0.004310317 -0.06876864
000190 d4 da 8d bd e2 7a 70 3d 93 40 8d 3d 7e 70 aa 3c
       -0.06926504 0.05871094 0.06897082 0.020805594
0001a0 e2 12 b2 3d a7 68 d2 3c 7a 2b be 3c 61 24 5b bc
       0.08695008 0.025684668 0.02321409 -0.013375373
0001b0 31 5b b2 bd ab 51 93 3d e7 d9 42 bd 6c c2 75 3d
       -0.087088 0.07193311 -0.04757109 0.05999987
0001c0 f4 88 0f 3d 44 9b a8 3c 15 fd 8f 3c 3f 2c 94 bd
       0.035042718 0.020581849 0.017576734 -0.07235002
0001d0 7c f5 04 3e 47 67 be bd d0 46 9c bb 5e 22 f4 bd
       0.1298427 -0.09297042 -0.0047691837 -0.119206175
0001e0 12 66 c6 bd 69 08 93 bc fa 3f c7 bd 8d 83 00 3c
       -0.09687437 -0.017948346 -0.097289994 0.007843864
0001f0 15 53 62 bd 38 09 07 bd 00 8e fe bd 37 76 cb 3d
       -0.055255014 -0.032967776 -0.12429428 0.09934657
000200 e3 e2 53 3c fa 15 66 3e 65 76 88 bd 58 17 eb bd
       0.012932512 0.22469321 -0.06663207 -0.11479062
000210 e5 39 eb bd e5 47 06 3e 99 bf e6 bd 15 b1 9a bd
       -0.11485652 0.13113363 -0.11267013 -0.07553307
000220 c0 3b ee 3d 1b 2c b7 3d 67 9a b3 3c 48 a4 9f 3c
       0.1163249 0.08943959 0.02192421 0.019487515
000230 9c 6d a2 3d 8d 5b 8b 3d db 89 11 3d 76 10 b0 bd
       0.079310626 0.06804571 0.03553186 -0.0859689
000240 f1 3d bc bd 93 e9 8b 3c 95 4b 28 bd da 6c c0 bd
       -0.09191502 0.01707915 -0.041087706 -0.09395762
000250 3e 62 23 bd 23 80 a3 3d 10 5a 0c bd 74 44 62 3d
       -0.039888613 0.079834245 -0.034265578 0.055241063
000260 71 02 7a 3d 2c 54 46 3d bb 32 86 bd 51 1d 9b bc
       0.061037485 0.048420116 -0.06552645 -0.018934878
000270 e5 f4 4e bc 79 73 ea bb 8a 2f ec 3d 0a be 04 3e
       -0.01263163 -0.0071548787 0.11532505 0.12963119
000280 5b a4 e7 3d 13 04 ae 3d b1 c7 cd bd 46 e4 d0 bd
       0.11310645 0.08496871 -0.10047854 -0.1019979
000290 0b c4 da 3c 93 9b 30 bb 0f a0 a2 3c 5c de a3 3d
       0.026704809 -0.0026948198 0.019851713 0.08001396
0002a0 de d8 7c bc 01 84 d2 bd 6f fe a1 bd f5 90 d1 3c
       -0.015432565 -0.10279084 -0.079098575 0.025581816
0002b0 63 bd d2 bd cf e3 51 be ee 1a ed bd d9 0a 45 bd
       -0.10290029 -0.20497058 -0.11577402 -0.04810605
0002c0 6f ed b4 3d 7d b5 e3 3d 97 c1 cd bd ff 1a c5 3d
       0.08834349 0.111186005 -0.1004669 0.0962429
0002d0 b5 fa 0e 3d 7d a6 ce 3d ee 3a c8 3d a6 9c 0e be
       0.03490706 0.10090349 0.09776865 -0.13926944
0002e0 eb 79 ee bc 6d 06 8b 3d 64 4f 2c bd ca 13 04 3c
       -0.02911087 0.06788335 -0.0420679 0.008061359
0002f0 b6 c9 59 bd f5 21 99 bd 3b 66 be bb 9b b7 c0 3c
       -0.053170882 -0.0747718 -0.0058105267 0.02352505
000300 97 25 8e 3d 5a 4b 5f 3d c9 57 9a 3d 66 fb 89 bc
       0.069407634 0.05451522 0.07536275 -0.016843509
000310 3c b1 13 bd 81 26 2d bc 5f 46 d0 3d ba 16 f0 3c
       -0.036057696 -0.010568262 0.10169672 0.029307712
000320 4a df ae 3d 84 ae e8 bc 84 7e c2 bb ec 7b 99 bd
       0.08538683 -0.028403528 -0.005935492 -0.07494339
000330 80 19 f1 bc 0f 57 b6 3c c0 f9 7e bc 11 3d cd 3d
       -0.029431105 0.02225831 -0.015562475 0.10021413
000340 a9 18 27 bd a2 5a da bd 0c 39 16 3d 51 a4 a6 3d
       -0.040795002 -0.10661818 0.036675498 0.081368096
000350 ed 91 e7 3d 8f 01 eb bc b3 58 8a bd 74 47 e7 bd
       0.1130713 -0.028687267 -0.06755199 -0.112929255
000360 e2 c7 06 3e 75 55 c8 bd 1b 79 e6 bd 94 96 dd bc
       0.13162187 -0.09781925 -0.11253568 -0.02704934
000370 71 96 8a 3d 8d f0 a4 bd b2 0d c3 3d 17 b4 4e 3d
       0.06766976 -0.08053694 0.095240965 0.050464716
000380 ee 35 ae bd bb 9a e5 bd 06 81 81 3d f2 3e cb 3d
       -0.0850638 -0.11211153 0.063234374 0.09924115
000390 dd 46 2e bc 0e ee 47 bd 7c d8 f9 bd 15 0d ec bd
       -0.010637012 -0.04881101 -0.12199494 -0.11525933
0003a0 e0 9f 9e 3d 03 5c 15 3d 0a a8 4b 3d ba 89 6d 3d
       0.077453375 0.036464702 0.0497208 0.057992674
0003b0 4f 4b 29 bd 8c 07 f1 3c bd 24 f3 3d 55 1f d4 bd
       -0.041331585 0.029422544 0.11872242 -0.103575386
0003c0 06 f8 95 3c 36 77 1b 3d bd 8b 7a bd 1b 44 f4 3d
       0.018306743 0.037955485 -0.06116842 0.119270526
0003d0 5a 28 3e 3d 78 9c 18 3d 41 9b b8 3d 5d ab 98 bd
       0.0464252 0.037258595 0.09013987 -0.0745456
0003e0 8d 78 e0 bd be 47 13 3e 9e f3 17 3c 99 4b ba bd
       -0.10960493 0.14382836 0.009274391 -0.0909645
0003f0 84 28 4c 3d 3f bd 79 3d d7 a8 00 bc ef 45 50 3c
       0.049843326 0.060971495 -0.007852755 0.012711986

3.bias f4 [64]
000000 4d 5d 83 bd dd 22 df bd 40 1c 81 3d 55 ec 92 bd
       -0.0641428 -0.108953215 0.063042164 -0.07173983
000010 91 a8 ce bc 01 b4 cf 3d 22 cf fb 3c c7 c1 94 bd
       -0.025226863 0.10141755 0.030738417 -0.072635226
000020 4e aa 03 be 1e 9a de 3d 2b 04 c2 bc 4b b1 b5 bc
       -0.12857935 0.10869239 -0.023683628 -0.022179266
000030 64 0f 9c 3d 46 7f d2 3d 43 b0 13 bd 0a 16 11 bd
       0.07620123 0.10278182 -0.03605677 -0.03542141
000040 db 3d b1 bc da 1e 79 bc 10 7f 07 be 1c 37 13 3d
       -0.02163594 -0.0152051095 -0.13232064 0.03594123
000050 d2 82 b3 bd ad 6d cb bd a4 18 bb 3b 44 40 4d bd
       -0.08765186 -0.09933028 0.0057097245 -0.050110117
000060 df b8 67 bd 04 f5 14 3d 95 08 03 bd 1b a2 05 be
       -0.05657279 0.036366478 -0.031990606 -0.1305012
000070 17 cf b4 3e ed 40 ef 3c b5 8f 23 3d 04 9c ea 3d
       0.35314247 0.029205764 0.03993197 0.11455539
000080 c8 be dc bd bb 5a 7e 3e 86 f2 e7 bd a0 94 b8 3d
       -0.10778576 0.24839298 -0.113255545 0.09012723
000090 9c a6 ee 3d 28 bc 98 bc cb d7 86 3c a7 c1 45 3d
       0.11652872 -0.018644407 0.01646032 0.048280384
0000a0 3b 0b 07 3b a2 3d 4b bd 29 3c 91 bd 3f 29 23 bd
       0.002060606 -0.049619325 -0.07091553 -0.039834257
0000b0 6d 9f c4 bc 1d 0c f0 bc b1 ed 32 bd 66 27 c2 3d
       -0.024001801 -0.029302651 -0.04368371 0.09480171
0000c0 97 d0 6b bc 4e b1 ca 3d be d9 09 3d 6e 4b 0e bd
       -0.014392993 0.098970994 0.03365492 -0.034739904
0000d0 45 01 0a 3e 7f d2 ed 3d 45 de d6 bc dd f2 0f be
       0.13477047 0.116124146 -0.026229033 -0.14057489
0000e0 3a 58 ec bd 95 9b 17 be 22 5f cb bc 03 6c 1f 3e
       -0.115402654 -0.14805444 -0.024825636 0.15568547
0000f0 bb 56 df 3b 0d e9 3a be c9 b2 54 3d 40 b6 c7 bc
       0.006815759 -0.18252964 0.051928315 -0.024378896

4.a f4 [1, 64]
000000 6e 68 ea 3c c3 15 08 3f 90 ff 45 be 77 f8 1e 3f
       0.02861425 0.53158206 -0.1933577 0.6209788
000010 d7 d2 95 3d 35 08 45 3f 5a 8c 29 3f 34 00 56 bf
       0.07315605 0.7696565 0.66229784 -0.8359406
000020 c8 e0 13 3f 29 64 d3 be 81 98 66 be 19 f5 db 3d
       0.57764864 -0.41287354 -0.22519113 0.10740108
000030 85 98 9a 3f ac ed 27 bf 11 dc d4 be 8b f0 b4 bf
       1.2077795 -0.65597034 -0.41574147 -1.4135908
000040 73 60 17 3e 4e 5b c6 3d e4 fd c5 bf 16 fa 12 3f
       0.14782886 0.09685384 -1.5468106 0.5741285
000050 85 07 0e bf e0 bd e8 be 5a 3d 29 3f 5d 6c a7 bf
       -0.55480224 -0.45457363 0.6610924 -1.3079945
000060 8e c4 71 3e e9 e8 b6 3e 96 b8 28 bf 0f 94 21 c0
       0.23610136 0.3572457 -0.65906656 -2.5246618
000070 e0 41 63 bf 36 eb cc 3e 1a 63 4a 3f d6 77 5e bf
       -0.8877239 0.40023202 0.79057467 -0.86901605
000080 1b 9a dc bf b6 0f e6 3e ba 61 0f 3f d6 42 8e 3f
       -1.7234529 0.44933861 0.56008494 1.1114147
000090 a6 80 45 3f 37 6d 21 be 54 c5 55 3e 54 cb 9b bf
       0.77149427 -0.15764318 0.20876056 -1.2171426
0000a0 b4 52 76 be cb 1e df 3c 62 c9 b9 bf 96 63 b9 be
       -0.24054986 0.027236363 -1.4514582 -0.3620879
0000b0 c2 3b d1 3e 1d 1d 3f 3e 50 4a 02 c0 71 f2 b8 be
       0.40865904 0.1866345 -2.0357857 -0.36122468
0000c0 73 62 39 bf 14 28 af be 76 d2 13 3f 77 b3 51 bf
       -0.72415847 -0.34210265 0.5774301 -0.81914467
0000d0 65 27 97 3f a9 2d 40 c0 35 36 b9 bf 4b 76 a0 3f
       1.1808897 -3.0027869 -1.4469668 1.25361
0000e0 f4 13 f9 3d 95 b4 12 3f 7a ea 64 3f 97 a6 9b bf
       0.12162009 0.57306796 0.8942028 -1.2160214
0000f0 2f 23 c0 be 96 43 d3 3f 3d ee 7e bf 9e e4 0a bf
       -0.37526843 1.6505 -0.9958227 -0.5425509

5.weight f4 [3, 64]
000000 ee ac 7c bd 5f ab 9a bd 96 d5 2d 3c ff 4f f0 bc
       -0.061688356 -0.07552218 0.010610005 -0.02933502
000010 7d 0f 96 3c 10 d0 cf 3c 7c 5f 1d bc 90 1b 22 bd
       0.018317932 0.025367767 -0.009605285 -0.039577067
000020 80 20 85 3d 0a 14 20 bc a2 77 21 bd 73 0b 95 3d
       0.065003395 -0.009770403 -0.03942073 0.072775744
000030 c5 4f f2 bc 86 55 b7 3d b4 e1 77 bc c9 d8 56 3d
       -0.029579053 0.08951859 -0.015129495 0.052452836
000040 f2 88 1d 3b d2 74 66 bb 14 54 40 3d 01 9e c1 bc
       0.0024037925 -0.0035164845 0.046955183 -0.023634912
000050 4e a3 aa bd 7e b9 6f 3d 40 1c 34 3d 03 d8 a9 3d
       -0.08331929 0.05852651 0.043972254 0.08293154
000060 b1 27 df bd 2a 73 22 3c b8 b7 87 3d 4b 0b 1d bd
       -0.108962424 0.009915153 0.066268384 -0.038340848
000070 43 81 c6 3d 37 0b e5 3c bc 40 de bc fa 33 99 bd
       0.096926235 0.02795945 -0.027130477 -0.07480617
000080 0f 02 cd bd 2f 46 bc bd 5f db 2d 3d fb 68 e5 3d
       -0.10010158 -0.09193074 0.042445537 0.11201664
000090 ce ab 58 3c e7 c9 80 bd 8e 73 b5 3c 84 21 08 3c
       0.013224555 -0.0628851 0.022149827 0.008308772
0000a0 ff 2e 87 bc 34 96 9f 3c 6f a3 cf 3d 84 8f 44 bd
       -0.016501902 0.019480802 0.10138594 -0.04798843
0000b0 9d 86 90 bc 87 f0 92 bc 12 cf bf bd a5 3a 34 bc
       -0.017642314 -0.017936958 -0.093656674 -0.01100031
0000c0 ce 08 a6 bc c8 f3 0f 3d ba eb cd 3c 84 c8 83 bd
       -0.02026787 0.035144597 0.025136817 -0.0643473
0000d0 89 a6 a9 bc 78 d0 95 3d 80 a2 c3 bc c6 c4 c6 3d
       -0.020709293 0.07315153 -0.023881197 0.097055
0000e0 00 0b a2 3d d2 d9 7d bd 32 0c 94 3d 4e 83 b6 3d
       0.07912254 -0.061975308 0.072288886 0.08911763
0000f0 af 8b 1e 3d 48 c1 b1 bc 66 8a eb 3c 9f 51 08 bd
       0.03870743 -0.021698609 0.028752517 -0.033280965
000100 dc 6a 9b 3c 01 5a 6a 3d 0b cc c9 bd 34 21 30 3d
       0.018971853 0.05721474 -0.09853371 0.043000415
000110 28 da 85 bd 16 f8 67 bc f5 bb a4 3c 91 c8 3a bd
       -0.06535751 -0.014158269 0.020109156 -0.04560143
000120 c5 0d 49 3d e1 09 4b 3d c2 93 88 bc 64 41 24 bd
       0.049085397 0.049569968 -0.016672019 -0.040101424
000130 3b 41 8d bb 68 15 1c bd 30 75 eb 3d 0d 3f 38 3c
       -0.0043107546 -0.038106352 0.11496961 0.011245501
000140 e7 5c 96 b9 cb 44 e4 bc f2 fc c1 3d df 44 66 3d
       -0.00028679447 -0.027864834 0.094720736 0.056218024
000150 d8 23 3c 3d a3 27 de 3d c5 29 12 3d 7a d0 00 3c
       0.04593262 0.10847404 0.035684366 0.007862205
000160 df 55 93 bd a1 5a 6b bd 86 30 93 bc ba 30 8f 3d
       -0.07194113 -0.057459477 -0.017967474 0.06991716
000170 74 1d cb 3d ba 8c c2 bd 0a 45 88 3d 61 b9 9b bd
       0.09917727 -0.09499498 0.06653793 -0.076037176
000180 2c 42 40 3b 15 3f 3d bd ce 9a c5 3d 03 f3 7f 3c
       0.0029336317 -0.046202738 0.09648667 0.015621903
000190 1b 56 2d bc 22 85 35 3d 67 8a d0 3c 3d 9d 59 bd
       -0.010579611 0.04431642 0.02545662 -0.05312847
0001a0 4f 0f ca 3d af ad af bc e6 0d bc bc 06 39 01 3d
       0.09866201 -0.021445123 -0.022955846 0.031548522
0001b0 cb 07 95 3d c8 5a ba bd aa d4 24 3c cb 45 8c 3d
       0.07276877 -0.090993464 0.010060469 0.068492495
0001c0 16 c7 d9 bd 1d e1 3b bd 5b c9 ef bc b1 8c 51 bb
       -0.10633676 -0.04586898 -0.029270818 -0.0031974728
0001d0 49 b0 b8 bd cf cc c2 3d fb 88 07 3d 5f 57 a9 3d
       -0.09017999 0.095117204 0.03308962 0.08268618
0001e0 f8 8a a0 3d 95 0a 8e bd 0b 76 7b 3d 72 8e ee 3c
       0.07839006 -0.06935612 0.06139187 0.029120658
0001f0 66 49 e1 3d c0 cb c4 3c b2 32 e0 bc 99 5d 57 bc
       0.11000328 0.024022937 -0.027367923 -0.013144874
000200 bb bb b6 3d 7b c3 5c bd ee 73 88 3c 12 66 dd 3a
       0.089225255 -0.053897362 0.016656842 0.0016891381
000210 3c bf 75 bd cc 24 97 bd 6c 44 bc 3c 63 c0 b4 bd
       -0.05999683 -0.07380065 0.022981845 -0.08825757
000220 18 16 14 3d ee 94 42 3d 1b 59 c2 3d 66 8f 12 bc
       0.036153883 0.04750531 0.09489652 -0.008945322
000230 83 e4 13 3c 5d 93 3b 3d 2a 36 49 bd 77 50 d4 3d
       0.009026649 0.045794833 -0.04912392 0.1036691
000240 f1 b7 5a bd 42 51 6a 3d e9 02 46 bd 67 17 b0 3c
       -0.053398076 0.0572064 -0.04834262 0.021495534
000250 7e b3 a1 bd 82 30 d3 b9 96 2d 8f 3d b3 8b 71 3c
       -0.078955635 -0.00040281197 0.06991117 0.01474278
000260 59 90 76 3d 62 11 3a bd 52 59 b1 bd 06 18 68 3d
       0.060196254 -0.045426734 -0.086596146 0.056663536
000270 d3 5f 51 bc 3d e7 97 3d dc 73 8b 3d b8 6b 87 3d
       -0.012779194 0.07417152 0.06809208 0.066123426
000280 ff 28 81 bd a2 95 60 3d 84 ac 9a bd 76 33 73 bd
       -0.063066475 0.0548302 -0.07552436 -0.05937525
000290 9e 9c c4 ba 84 da 09 bd 39 cd d2 3d bf 62 9c 3c
       -0.0015000289 -0.03365566 0.10293049 0.019090055
0002a0 7c 25 f8 3d 94 e6 c3 bd b0 76 cd 3c d5 c8 06 bb
       0.121165246 -0.09565464 0.025081009 -0.0020566483
0002b0 17 48 f9 bd 24 9a a5 bd 07 c3 6d 3d dd 10 89 3c
       -0.12171953 -0.080860406 0.05804732 0.016731674
0002c0 b3 88 94 3d 81 60 ea bd f5 26 f3 bd 02 e1 63 3d
       0.07252636 -0.11444188 -0.11872665 0.055634506
0002d0 b2 46 db bc e5 6d fe 3b dd a1 e4 bd 8e 6b 2b bd
       -0.026767109 0.0077645653 -0.111636855 -0.04185062
0002e0 b0 e8 2f 3c 48 a9 84 3c 5a 95 ba bd de 2b 4f 3d
       0.010736629 0.016194 -0.09110518 0.050578944
0002f0 cd b1 00 3d 2c e0 58 3d f8 ed d5 ba ed ad 97 b9
       0.031419564 0.052948162 -0.001632153 -0.0002893055

5.bias f4 [3]
000000 fc 92 e5 3d 0f 0e 87 3d 67 ea 84 3d
       0.11209676 0.06594478 0.06490021

exp_avg f4 [64, 3]
000000 3b ef b5 47 c5 e1 29 46 9c c2 c7 c6 ee 2f 1b c8
       93150.46 10872.442 -25569.305 -158911.72
000010 f9 50 0f c7 18 0e d9 c6 59 f2 c2 47 55 f8 a7 c7
       -36688.973 -27783.047 99812.695 -86000.664
000020 c9 d4 a8 c6 af 49 b8 c7 1c 00 2b 47 04 f2 16 47
       -21610.393 -94355.37 43776.11 38642.016
000030 89 c0 9b c6 0f d9 08 47 5f 93 a6 c3 66 97 84 47
       -19936.268 35033.06 -333.15134 67886.8
000040 99 ef 71 47 a3 61 b7 c7 00 33 aa c5 eb 68 f4 c6
       61935.598 -93891.27 -5446.375 -31284.459
000050 04 19 9f 47 b4 22 45 c6 f0 38 1b c7 89 a0 91 c6
       81458.03 -12616.676 -39736.938 -18640.268
000060 04 31 00 c7 db 2a 3f c7 3b cf 3f c7 53 38 07 48
       -32817.016 -48938.855 -49103.23 138465.3
000070 4a b4 39 47 e3 8e c1 c5 c8 49 62 c7 9c 51 2b c7
       47540.29 -6193.861 -57929.78 -43857.61
000080 6a ae 1a 47 bb aa e7 46 ce 06 9a 45 2a f2 c9 c6
       39598.414 29653.365 4928.8506 -25849.082
000090 0d 41 d4 46 3d 0d 56 c5 2e da 22 c6 b3 e1 30 46
       27168.525 -3424.8274 -10422.545 11320.425
0000a0 71 75 31 c7 6d 99 ef c6 d0 39 51 c7 fe e2 ec 46
       -45429.44 -30668.713 -53561.812 30321.496
0000b0 1e 61 99 47 fd 2c b7 47 bf 4c a1 47 7e ba 95 46
       78530.234 93785.98 82585.49 19165.246
0000c0 d6 0a c1 c6 53 3e af c6 01 23 9e 47 49 56 a0 c7
       -24709.418 -22431.162 80966.01 -82092.57
0000d0 c5 31 6c c6 b5 7a 06 c6 5d 40 3e 47 b1 cb 21 c7
       -15116.442 -8606.677 48704.363 -41419.69
0000e0 90 17 8f 47 8a e7 7d c7 e5 4d 42 47 67 45 ae c6
       73263.125 -64999.54 49741.895 -22306.701
0000f0 df b0 49 c7 fc 48 54 46 ea f3 02 c7 68 5b 10 c7
       -51632.87 13586.246 -33523.914 -36955.406
000100 bf 3b a9 c7 ef 19 94 47 a3 3e ae c7 6c 35 b5 c5
       -86647.49 75827.87 -89213.27 -5798.6777
000110 9a fd 66 47 b8 66 7a 47 a9 47 32 46 43 ac 88 c7
       59133.6 64102.72 11409.915 -69976.52
000120 8e a8 76 47 42 67 3c c6 7d ac c1 47 78 b4 e5 c6
       63144.555 -12057.814 99160.98 -29402.234
000130 fc e0 69 46 cb f5 a5 47 d9 eb 1a c7 9c 13 90 47
       14968.246 84971.586 -39659.848 73767.22
000140 2f ea 23 c7 a9 f3 15 45 13 5b f1 c6 2a 5f 88 46
       -41962.184 2399.2288 -30893.537 17455.582
000150 b2 e3 13 47 37 d2 3b 47 3b 50 f4 46 06 06 10 47
       37859.695 48082.215 31272.115 36870.023
000160 f8 b8 54 47 39 9f 6b 46 9e cc 5f 45 0f 0d 47 c4
       54456.97 15079.806 3580.7886 -796.20404
000170 cf 55 80 47 31 4e 45 47 2e be 02 46 88 05 68 46
       65707.62 50510.19 8367.545 14849.383
000180 51 5b f4 46 c4 68 01 c6 3f b1 4d c7 df 0b c5 c7
       31277.658 -8282.191 -52657.246 -100887.74
000190 6b 27 82 c7 0f 49 b2 c6 89 36 5f 47 c5 45 8b c5
       -66638.836 -22820.53 57142.535 -4456.721
0001a0 a1 bf 72 46 a2 17 4e c7 56 31 ff 47 66 bf 02 c7
       15535.907 -52759.633 130658.67 -33471.4
0001b0 47 92 26 46 a5 95 c9 46 81 55 a0 c7 34 13 2d 47
       10660.569 25802.822 -82091.01 44307.203
0001c0 0b a1 9f c3 94 34 86 c7 dc 3f 7b 47 f1 04 53 c7
       -319.25815 -68713.16 64319.86 -54020.94
0001d0 ad fc 87 47 28 10 36 48 da 48 d5 c5 eb ad 30 c5
       69625.35 186432.62 -6825.1064 -2826.8699
0001e0 81 7a c9 46 62 90 17 c7 49 d8 a5 46 da 89 7d 47
       25789.252 -38800.383 21228.143 64905.85
0001f0 b8 00 73 46 20 24 1b c7 ab 81 1b 45 3e 67 59 c7
       15552.18 -39716.125 2488.1042 -55655.242
000200 b4 f7 c6 c6 1f 02 c7 47 91 86 91 c5 21 01 71 c6
       -25467.852 101892.24 -4656.821 -15424.282
000210 bf e4 e4 c7 0a 78 6c c6 a0 82 6d 47 6b 62 29 c6
       -117193.49 -15134.01 60802.625 -10840.6045
000220 85 25 cc 47 dc 92 54 c7 10 82 fa c7 32 cc d1 46
       104523.04 -54418.86 -128260.125 26854.098
000230 10 6f 8c 47 e2 2d e3 c7 ea 1e b5 c7 d4 7e 55 46
       71902.125 -116315.766 -92733.83 13663.707
000240 6f 86 09 c7 ca 9e 4e c5 dc fa bd c7 ae 00 07 47
       -35206.434 -3305.9243 -97269.72 34560.68
000250 a1 32 35 c6 1e ba 31 47 51 c3 3a c7 0d 8c 66 c7
       -11596.657 45498.117 -47811.316 -59020.05
000260 37 0b 13 47 d7 bb 7c 46 84 5d 8e c7 c2 c9 89 46
       37643.215 16174.96 -72891.03 17636.879
000270 0f 47 7c c7 69 79 86 46 74 31 7c 47 13 2d 53 c7
       -64583.06 17212.705 64561.453 -54061.074
000280 40 dc e3 c5 64 4e c0 c6 2e 7c 0c c7 60 f4 64 c7
       -7291.5312 -24615.195 -35964.18 -58612.375
000290 66 1a a7 c6 99 21 86 46 8e a9 8a c7 21 ee 09 47
       -21389.2 17168.799 -70995.11 35310.13
0002a0 c6 09 19 c6 4e 5c 0c 45 bc aa 80 47 56 eb 98 c7
       -9794.443 2245.769 65877.47 -78294.67
0002b0 85 93 8d c3 95 47 86 47 b0 38 64 c7 78 f0 87 47
       -283.1525 68751.164 -58424.688 69600.94
0002c0 e5 81 03 c8 88 d9 a8 47 ae c0 1c c7 90 d3 e5 c5
       -134663.58 86451.06 -40128.68 -7354.4453
0002d0 ec ec 7d c6 26 a5 00 47 39 f3 10 c3 7e 40 1f c8
       -16251.23 32933.15 -144.95009 -163073.97
0002e0 ce 20 8e c6 86 04 95 47 cf cc b3 c7 ef 4c 61 c7
       -18192.402 76297.05 -92057.62 -57676.934
0002f0 dd a5 58 47 02 36 f8 c7 89 e3 d0 c6 86 1d 36 47
       55461.863 -127084.016 -26737.768 46621.523

exp_avg_sq f4 [64, 3]
000000 25 10 29 59 92 22 f7 58 8f fc 16 58 9a 42 44 5a
       2.974189e+15 2.1738228e+15 6.640459e+14 1.3810581e+16
000010 d6 30 fb 59 8c 52 85 58 58 9f bd 58 59 5a bc 57
       8.8379894e+15 1.1727167e+15 1.6679366e+15 4.1419245e+14
000020 ff 83 4a 59 6c dc 38 59 30 f5 1c 59 0b 7c 99 58
       3.5626923e+15 3.2521095e+15 2.7612302e+15 1.3500643e+15
000030 c6 22 bc 58 dd 8a d0 59 3b 31 1e 58 d9 42 ca 59
       1.6548603e+15 7.3374346e+15 6.957371e+14 7.1164306e+15
000040 8f 08 19 58 1e df 5d 58 c1 85 8d 59 c6 93 61 58
       6.7304815e+14 9.758014e+14 4.9793795e+15 9.920992e+14
000050 f2 2b 72 59 48 a0 94 58 2f 9c e1 58 04 49 a0 59
       4.260329e+15 1.307329e+15 1.9844874e+15 5.6395347e+15
000060 5d 76 7d 5a f1 4f 4d 58 bd ff 32 59 94 77 0b 5b
       1.7835828e+16 9.029729e+14 3.1489833e+15 3.92565e+16
000070 98 2d b0 59 bd 73 6d 57 a1 0b e1 57 c8 d6 01 59
       6.198716e+15 2.6108135e+14 4.9488012e+14 2.2841517e+15
000080 b3 8a b0 59 80 19 67 59 02 82 d3 57 92 63 02 56
       6.211512e+15 4.0655473e+15 4.6511067e+14 3.584104e+13
000090 9c ec 41 58 c0 25 c7 57 70 d1 d7 57 44 95 8d 59
       8.528879e+14 4.379299e+14 4.7458905e+14 4.9815114e+15
0000a0 55 f5 87 58 8c f6 64 57 90 94 1d 5a e4 d4 ce 57
       1.1959021e+15 2.5174756e+14 1.1088729e+16 4.548275e+14
0000b0 6f 6a c3 59 08 15 3b 5b 98 95 22 5a 26 53 5c 58
       6.8755807e+15 5.2658945e+16 1.1440857e+16 9.689987e+14
0000c0 04 1c ad 59 cf 5b c4 59 0c a3 e1 57 cb 0a 82 59
       6.090747e+15 6.908755e+15 4.961808e+14 4.575452e+15
0000d0 22 f8 0f 59 53 3a 50 5a 62 45 61 59 46 11 94 57
       2.5327342e+15 1.4652731e+16 3.9630098e+15 3.2560382e+14
0000e0 1d 15 f7 59 54 a8 cc 57 32 50 9d 59 58 92 f9 59
       8.6934417e+15 4.5004667e+14 5.5349684e+15 8.781022e+15
0000f0 7f 2f 52 5a 22 78 04 59 79 34 21 59 9b 60 46 59
       1.4790492e+16 2.330424e+15 2.8359478e+15 3.4898915e+15
000100 f5 e9 24 58 37 e3 55 59 c4 fc c5 58 8c 2f 12 59
       7.25299e+14 3.7627497e+15 1.7415153e+15 2.5717266e+15
000110 84 33 11 5a fc 26 9b 58 5e 49 1e 58 db b5 4c 5a
       1.0217628e+16 1.3647339e+15 6.961518e+14 1.4405212e+16
000120 f7 9b 4a 5a 6a 62 ec 57 51 af da 59 be 2d de 58
       1.4257358e+16 5.1981486e+14 7.6942884e+15 1.9543043e+15
000130 86 33 a0 59 d5 d0 6a 59 89 9f b0 58 34 e8 0c 59
       5.636581e+15 4.1309224e+15 1.553594e+15 2.478863e+15
000140 77 19 df 56 b4 1a 79 5a ba 33 1f 5a 6f 84 ed 58
       1.2265023e+14 1.7529157e+16 1.1202849e+16 2.0892244e+15
000150 da 04 b9 59 fb 3f a1 58 d7 32 f9 59 db 22 88 58
       6.5097756e+15 1.4183693e+15 8.767896e+15 1.1974663e+15
000160 93 a7 0e 59 04 c1 dc 58 d0 f0 d5 59 8d a1 28 58
       2.509606e+15 1.9417724e+15 7.5273683e+15 7.4164724e+14
000170 47 7e b8 58 ca 0f f7 57 47 6d 95 56 5a 79 11 57
       1.62282e+15 5.4329437e+14 8.214829e+13 1.5995039e+14
000180 c2 1a 06 59 64 d2 44 59 48 6a 45 59 0e f1 cb 5a
       2.3591917e+15 3.4625264e+15 3.4729642e+15 2.8702231e+16
000190 c0 d3 2b 59 3f dc a2 59 ed 0b cf 59 44 d5 07 58
       3.0228152e+15 5.7301387e+15 7.284804e+15 5.9740015e+14
0001a0 15 3d 08 59 96 1c 86 59 e3 7c e4 59 40 cc 9e 58
       2.3967348e+15 4.7186347e+15 8.039201e+15 1.3968007e+15
0001b0 25 32 4a 58 6a df eb 58 04 49 2e 58 ba 4e 7e 58
       8.892669e+14 2.0747583e+15 7.665145e+14 1.1184563e+15
0001c0 46 83 3b 59 5b df 7c 5a e6 c0 fe 58 73 f4 0b 59
       3.2987598e+15 1.7794319e+16 2.2408356e+15 2.4621123e+15
0001d0 1f bc 04 59 4a de 80 5a 97 e8 ed 58 e3 be 93 58
       2.3350961e+15 1.8136603e+16 2.0926658e+15 1.2995845e+15
0001e0 ef ba 8e 57 c8 a9 d6 57 ed 83 0b 57 65 b3 8e 5a
       3.1386705e+14 4.720494e+14 1.5339873e+14 2.0083347e+16
0001f0 e6 a3 d1 59 fe 56 84 59 e9 4e 07 5a 7c aa 0c 58
       7.37606e+15 4.656293e+15 9.521471e+15 6.186554e+14
000200 d7 9c ce 58 a1 71 ce 59 76 0c bd 57 ca 46 b6 58
       1.8173841e+15 7.2635977e+15 4.1572243e+14 1.6033212e+15
000210 97 c6 9a 58 f8 4e b7 58 01 16 21 59 b5 d6 5a 59
       1.3614218e+15 1.6123984e+15 2.833854e+15 3.849851e+15
000220 08 b8 49 5a 07 09 2b 59 7b 2a c4 58 3b e5 1b 58
       1.4194704e+16 3.0088842e+15 1.7254939e+15 6.8563536e+14
000230 eb 2b 01 5a 14 a2 7e 5a 2e 1d 29 5a 31 db 13 5a
       9.08964e+15 1.7918213e+16 1.1900339e+16 1.0404456e+16
000240 20 e7 a3 59 24 25 1b 59 b0 79 b6 59 20 63 d8 57
       5.766818e+15 2.729341e+15 6.4202803e+15 4.758405e+14
000250 5a f6 5d 59 c6 9a c4 58 e5 b9 2a 59 8e f1 83 57
       3.9048023e+15 1.7293522e+15 3.0034462e+15 2.90147e+14
000260 dd 77 37 59 12 13 c4 58 49 05 c5 59 8c 87 35 58
       3.227607e+15 1.7246895e+15 6.9320477e+15 7.983751e+14
000270 0e a8 02 59 2a e1 56 57 fe c6 d2 57 e0 a3 6c 57
       2.2985328e+15 2.3626256e+14 4.635042e+14 2.6018858e+14
000280 e8 a2 a0 57 bc 33 b8 57 4d 58 a9 5a a5 06 be 59
       3.5324307e+14 4.0506467e+14 2.383318e+16 6.685944e+15
000290 ee 3e 10 58 cd 56 16 58 be 51 8c 57 d5 29 a4 59
       6.343998e+14 6.611982e+14 3.085654e+14 5.7759864e+15
0002a0 fc 48 79 59 63 16 92 57 c1 11 45 59 83 b0 a8 57
       4.3854698e+15 3.212497e+14 3.4668807e+15 3.7095213e+14
0002b0 32 88 72 58 b3 7d 68 59 8c 28 ea 59 3d ad 9c 58
       1.0666671e+15 4.0900251e+15 8.238716e+15 1.378143e+15
0002c0 86 ce fb 58 08 34 40 59 c1 e3 9c 58 2b 22 aa 59
       2.2149154e+15 3.3812753e+15 1.3800161e+15 5.986039e+15
0002d0 2a 35 3d 59 c1 5f f9 58 5c 47 5d 59 95 90 05 5a
       3.3285766e+15 2.1935172e+15 3.892777e+15 9.398785e+15
0002e0 96 56 af 59 85 e6 11 58 f1 3e 38 5a e4 18 1f 59
       6.1691654e+15 6.4167704e+14 1.296515e+16 2.798868e+15
0002f0 1b df 71 56 d0 6d d9 58 7e d0 f8 58 75 5b 8e 58
       6.6485133e+13 1.9125253e+15 2.1885948e+15 1.2521876e+15

exp_avg f4 [64]
000000 3e 75 b2 45 87 70 27 c6 0a 8e cd 45 c1 6c bd c6
       5710.6553 -10716.132 6577.755 -24246.377
000010 95 df 10 44 db 26 1f c7 28 6a 19 c5 bb 51 9c c5
       579.49347 -40742.855 -2454.6348 -5002.2163
000020 62 ed 28 46 3b c4 be 45 56 6c 13 c7 08 89 20 46
       10811.346 6104.529 -37740.336 10274.258
000030 9a 0f ee 46 43 70 c0 c5 46 39 a8 c6 b7 1d af c6
       30471.8 -6158.0327 -21532.637 -22414.857
000040 74 09 54 c6 ad 76 fa c5 20 27 b4 c5 50 3e 80 c6
       -13570.363 -8014.8345 -5764.8906 -16415.156
000050 2d 8a 8a c5 a9 44 45 46 7c 86 38 46 40 c5 fd 46
       -4433.272 12625.165 11809.621 32482.625
000060 01 18 2b 45 d5 79 64 46 5a 70 b0 c6 60 1b 96 c4
       2737.5002 14622.458 -22584.176 -1200.8555
000070 16 bd 1b 45 78 2c a1 c5 f2 34 16 46 79 c2 3b 44
       2491.8179 -5157.5586 9613.236 751.03864
000080 4e 05 d4 45 bb b0 b9 45 e5 c0 8d c6 76 05 5e c6
       6784.663 5942.0913 -18144.447 -14209.365
000090 b1 d8 b6 c6 b5 5c 1f 45 17 2f 5c 46 45 61 95 46
       -23404.346 2549.7942 14091.772 19120.635
0000a0 b4 1d 21 c4 b4 b5 f5 c6 49 e8 53 46 0b 59 f3 45
       -644.4641 -31450.852 13562.071 7787.1304
0000b0 99 13 ce c6 b1 79 ab 44 58 2e b0 c6 42 6d b4 45
       -26377.799 1371.8029 -22551.172 5773.657
0000c0 47 2c f1 45 76 b8 c0 46 51 9e cb c6 cc 98 c8 46
       7717.5347 24668.23 -26063.158 25676.398
0000d0 90 c4 a9 46 eb eb 3f c6 30 1a 59 c3 29 56 a9 45
       21730.281 -12282.9795 -217.1023 5418.77
0000e0 37 13 23 47 ce 9c 86 c6 49 01 95 c6 92 b7 bb 46
       41747.215 -17230.402 -19072.643 24027.785
0000f0 d0 25 a4 c6 c6 d5 07 c7 2f 66 14 46 7f bb 04 c7
       -21010.906 -34773.773 9497.546 -33979.496

exp_avg_sq f4 [64]
000000 92 69 2a 58 3b 69 b0 56 b4 27 53 55 1a 2f b1 58
       7.494816e+14 9.6983e+13 1.4510467e+13 1.5585269e+15
000010 9c 9d 1a 57 49 5d 3f 59 a8 4c d1 56 77 ec 83 57
       1.7000172e+14 3.366518e+15 1.1506358e+14 2.9010326e+14
000020 e6 84 ad 57 7a 4a 63 57 dd 47 a6 58 41 77 18 57
       3.815726e+14 2.4990901e+14 1.4626206e+15 1.6763796e+14
000030 ba 08 9f 58 cd df b1 56 7e 12 bf 57 74 cd 05 58
       1.3988786e+15 9.778739e+13 4.201723e+14 5.8846984e+14
000040 fa 08 26 58 1a d3 42 57 ad 42 89 55 4a 87 4c 58
       7.3022994e+14 2.1421193e+14 1.8864933e+13 8.9952574e+14
000050 e5 bf d4 56 6b 13 88 57 52 24 1d 58 0c eb 13 58
       1.1696032e+14 2.9923396e+14 6.911173e+14 6.505509e+14
000060 a1 e1 26 57 b3 1b 8f 57 fb 39 4f 58 8a e2 05 56
       1.83488e+14 3.1469826e+14 9.113917e+14 3.6802006e+13
000070 93 1f db 57 14 41 34 58 65 dc 81 56 64 6c d2 57
       4.818573e+14 7.927664e+14 7.139179e+13 4.6272595e+14
000080 52 24 49 56 d5 3b b4 57 cb b8 0e 58 31 76 da 57
       5.528946e+13 3.9633814e+14 6.276973e+14 4.8040233e+14
000090 52 b6 71 57 5d ae 8b 55 95 af 81 55 7f a7 a0 57
       2.6576536e+14 1.9197625e+13 1.782389e+13 3.532825e+14
0000a0 aa b6 f4 56 c0 dd 5b 58 56 94 59 58 3f 28 15 56
       1.3453269e+14 9.669818e+14 9.569245e+14 4.100002e+13
0000b0 be d1 ab 55 43 84 cf 57 7b 0d 91 58 73 71 c0 56
       2.3614666e+13 4.5633393e+14 1.2758967e+15 1.0579675e+14
0000c0 4a c0 c0 55 5e 0e 12 57 04 5a c8 56 c9 0d 08 58
       2.6491513e+13 1.605904e+14 1.1014447e+14 5.9837115e+14
0000d0 c4 b1 34 57 89 96 d1 56 a5 66 f5 57 87 42 1a 57
       1.9867559e+14 1.1522224e+14 5.396424e+14 1.6961052e+14
0000e0 9a 48 7c 58 6b 71 30 58 07 2c 1e 58 22 e0 2d 59
       1.109555e+15 7.760047e+14 6.956477e+14 3.0588505e+15
0000f0 30 03 83 57 c0 e9 bf 58 82 a8 e8 57 94 d8 9e 58
       2.8809943e+14 1.6880854e+15 5.1162087e+14 1.3972243e+15
