3D_Isotropic_Beam_Model_1.07E+04_99728.tar (torch, 106055 bytes, 47 tensors)

0.weight f8 [32, 3]
000000 cb 09 c1 2d 27 53 9c bf bc b0 16 c2 07 66 d1 bf
       -0.027660953681569993 -0.27185243562668027
000010 38 08 56 4d 9f 59 b6 bf 33 df 61 29 f8 1f d6 bf
       -0.08730502737128709 -0.34570125619164854
000020 63 72 25 cc 7c 84 c5 3f c9 7e ee 8d b6 b4 a5 bf
       0.16810569732742228 -0.04239435656131502
000030 a9 61 b6 fa 3e 80 c5 3f ff 25 7d a0 5e 34 df bf
       0.16797625772302396 -0.4875713889383348
000040 43 1e 0a e9 2b db d5 3f 9d 2c 64 a8 bb d0 e1 3f
       0.3415021682526211 0.5567301072018328
000050 cf 91 64 fa ca 1c c1 3f fc 32 19 b5 1c 83 c8 bf
       0.13369118906224606 -0.19150122492501243
000060 6e 28 11 be 67 bd da 3f 7a 67 ad a1 57 56 d3 3f
       0.4178103786586068 0.3021449164276572
000070 4c 26 81 b0 19 23 9f bf 3b f2 9f dc 3f 96 cb 3f
       -0.03040733470724026 0.21552274964041537
000080 2a 62 fe bb 3a d4 e1 3f c0 3c 2d b6 cf 2b c1 bf
       0.5571569129707019 -0.13414951701495248
000090 34 11 15 91 c4 47 e2 bf 0f c1 17 9d 61 11 dc 3f
       -0.5712607225073385 0.4385608705624841
0000a0 7d ca 1b 5a 3d 3d df bf 25 a3 b7 71 17 53 c4 3f
       -0.48811277198470987 0.1587857537517944
0000b0 a2 a3 a9 68 4d d7 e0 3f 15 41 13 32 64 c4 e0 3f
       0.5262820285980647 0.5239735582381707
0000c0 4c 1f e4 a8 3c f1 d0 3f b7 2b 11 2d fc c8 e1 bf
       0.26472393506309255 -0.5557843094078326
0000d0 ea 13 86 52 37 25 cf 3f e2 4f 89 68 72 d2 cd bf
       0.24332324532966193 -0.23298482994380182
0000e0 4d e5 6c 58 6f 68 c1 3f d3 64 df bb e4 71 da 3f
       0.13599960153241356 0.4132015070623087
0000f0 4f 6a 70 8f 6f 99 d5 bf 11 06 df 9e 3e 83 9e bf
       -0.3374899769566228 -0.029797533461311036
000100 3e 38 23 34 73 2b de 3f 94 7a ba d7 f1 f8 df 3f
       0.47140197841224907 0.499569378540323
000110 e7 3b 35 46 c7 91 dc bf 1f ed 1e 91 99 69 d1 bf
       -0.4463976083397356 -0.2720703046031349
000120 df 83 37 04 c8 8b 93 3f e4 df 40 32 ee 1d db bf
       0.019087910897613965 -0.4237018099552172
000130 08 35 71 d8 3e 3d d2 bf b9 73 b0 1a ef 41 d2 bf
       -0.28498812806067564 -0.285274292052971
000140 8b 4f 29 eb 3a 22 af bf 4e dc 2f b7 19 dc d3 3f
       -0.060808030325147554 0.3103088654456244
000150 3e 6a 11 ff d7 90 cb 3f 22 93 46 06 7e 7d dc bf
       0.2153577800225594 -0.44515944111690164
000160 18 2b 5c 25 91 87 ce bf e1 97 3a 4b 12 d6 e0 bf
       -0.23851217579098072 -0.526131770068556
000170 2a 56 54 2e 31 b7 d5 3f b8 e4 f1 e2 b4 0d cc bf
       0.3393061592517791 -0.21916829186719666
000180 3a 3a a5 72 f1 71 d7 bf aa 76 2d 49 ce 0a c5 bf
       -0.36632953830568094 -0.16439226697086912
000190 10 6d 8e 60 58 fe c8 3f 43 48 08 f0 15 57 c9 3f
       0.19526200022378548 0.19797014446572989
0001a0 ae 6d 2f 56 3f a6 d1 bf ac 49 42 0c 45 74 e0 bf
       -0.27577193657426846 -0.5141930808479649
0001b0 a0 d2 8c 13 be df e0 3f 27 1c cc 01 b8 b0 db 3f
       0.5273123151624368 0.432661058192425
0001c0 70 92 26 aa 3b c7 c2 3f ed 25 5d c6 a9 a3 c7 3f
       0.14670511062753944 0.18468210397467946
0001d0 df e8 29 8c 17 c4 d0 bf 3d 17 7a 53 9f 78 e3 bf
       -0.2619685047899462 -0.608474410096029
0001e0 37 f0 52 63 3b 71 e1 3f 3b 52 bf e4 90 ee 9a 3f
       0.5450722637101596 0.02630068203127876
0001f0 8a 7d 0b bb d5 b5 d4 bf 6c 7c 6f 04 e6 05 dd 3f
       -0.32359832063772187 0.45348501618531745
000200 83 c7 b2 74 f0 1d d2 bf cb 52 ca 90 19 8c b3 bf
       -0.2830773486740485 -0.07635650429649414
000210 89 7f ff c0 94 13 dd bf 5f 87 e4 63 4f 31 de bf
       -0.45432013366188834 -0.4717596507563168
000220 aa 14 57 24 d4 35 d2 3f 51 24 73 87 23 d1 e1 bf
       0.28453544186443 -0.5567796369078996
000230 7e 47 a1 77 92 c5 ca 3f c4 93 ae 68 28 43 d5 bf
       0.20915442315395788 -0.33222398970457
000240 07 16 89 08 6a 1a d2 3f 8e 5d e8 eb 08 3f ad bf
       0.2828621943811815 -0.05712154273731605
000250 0a a4 03 09 02 07 c2 bf 82 df ab c0 d3 a9 cc bf
       -0.14083886566302822 -0.22393271358282268
000260 da b1 3c e3 d7 0a e0 3f ec e7 b3 4c 84 f3 c4 bf
       0.5013236463760748 -0.16368154282810055
000270 8c 92 75 7f 72 16 ca bf 72 7c d8 76 7b db d3 bf
       -0.20381003593060532 -0.3102711353876152
000280 3e e7 dd ec 9d d5 d4 3f 7f 23 f1 de a4 f2 d5 bf
       0.325538140597576 -0.34293481609034154
000290 9e da 85 b4 22 ef c7 3f 10 21 98 b7 b2 68 e0 3f
       0.1869853383502304 0.5127805314851077
0002a0 f8 bc 37 26 ea 48 e0 bf 8b a6 5b 23 b5 46 c5 3f
       -0.5089007135810837 0.16622032381501514
0002b0 ad 34 ca fd 65 63 d7 3f 07 b0 30 1f b2 25 dd 3f
       0.3654417971054709 0.4554257683364544
0002c0 4b fe 8a 3c 62 1f be 3f 3a dd 04 ba 54 a9 db bf
       0.1176663778123778 -0.43221014181058914
0002d0 c1 ef 0d 2b 32 b9 b5 3f 14 e4 f6 47 a0 fd b1 3f
       0.08485711623319415 0.07027627713149825
0002e0 32 7b 34 72 74 15 d8 bf f0 fc ce f7 35 55 b2 3f
       -0.3763095011981249 0.0716127138139091
0002f0 7d 2f 81 eb 50 e2 c7 bf 8a 07 9d 0d 75 d5 c7 3f
       -0.18659411906480364 0.18620169796673408

0.bias f8 [32]
000000 d5 eb 05 9f ba 0f c6 bf 1b 5b ee 9e 8e 5d d3 bf
       -0.17235501065064676 -0.30258527298558285
000010 c1 49 12 76 ae 9d ba bf 49 c8 fd d8 ea b0 c6 bf
       -0.1039685285816523 -0.17727408976822037
000020 4b 27 3f 26 65 62 ae 3f 07 81 e3 46 f3 62 d8 bf
       0.05934444515112477 -0.3810394470474567
000030 1d e6 9f 90 0e 18 e1 bf 2b 2e bf 5c f6 57 ac 3f
       -0.5341866326045338 0.055358599492674486
000040 92 a0 e2 e8 16 62 d2 bf 20 57 22 fa 3b 42 da bf
       -0.2872369074125426 -0.41029261996424005
000050 97 58 4f 9e 48 e8 d0 3f 4d aa d2 c7 9c e7 e1 3f
       0.26417746982532136 0.5595230009833557
000060 e3 5f 86 14 4b d3 c7 bf 0b c5 19 b3 07 27 ce 3f
       -0.18613565923874295 0.2355661034121471
000070 cc c0 ac 4c c4 0b c9 bf f9 34 e6 ea 61 0b d9 3f
       -0.19567159408462087 0.3913197320878932
000080 f7 c1 79 81 b6 0c cb 3f 34 ea 93 ac 5b 21 d5 bf
       0.21132546731998023 -0.3301610169725422
000090 ff b6 d5 ea a8 48 c0 3f f2 82 fd ed a9 90 b5 bf
       0.12721740213913077 -0.08423864422139696
0000a0 f1 7e 5e 02 bf f0 db bf cd 2b 58 0b c3 29 d4 bf
       -0.4365689776550275 -0.3150489435944877
0000b0 31 63 12 e5 8a d1 e3 3f 9c 5b d1 cc 7a bd e0 bf
       0.6193289255198576 -0.5231298446986901
0000c0 49 6c 25 41 c4 65 e7 bf 3f b1 ba ff 6f 01 cf 3f
       -0.7311726829897306 0.24223136889248484
0000d0 a8 0b 51 3a 66 b2 d2 bf ff e8 13 4b f6 03 a2 bf
       -0.2921386308191196 -0.035186478295104344
0000e0 44 02 48 20 12 03 d0 bf 48 c2 94 87 fa 4b bb bf
       -0.2501874270674629 -0.10662809190831368
0000f0 18 f3 43 de 31 ab bc 3f 50 b1 8a 75 9b 57 dd 3f
       0.11198722530748417 0.4584721229428128

1.weight f8 [32, 32]
000000 ed 1d 8b 40 20 5a c2 3f 9f ee 7b bc 1b 2e ab bf
       0.14337542678389018 -0.05308615375358027
000010 e5 9a 6a 84 8b b9 c4 bf 30 68 ef 6e ca 9d a9 3f
       -0.16191238370557595 0.050031972925083656
000020 8f ea e7 da df fd a8 3f 97 d4 72 ae 3d 57 c2 bf
       0.04881190821830216 -0.14328738229747692
000030 68 17 46 e4 bf 64 c8 3f 82 a1 af e7 b6 bf a2 3f
       0.19057463308507328 0.036618915349950334
000040 61 04 a3 98 90 59 b5 3f 8f 81 f2 42 5a 66 c7 3f
       0.08339790083393119 0.18281105297957054
000050 3a b1 ba e3 f6 64 b5 bf 23 39 8c bd ae 08 c3 bf
       -0.0835718446712165 -0.14870247130642963
000060 b3 28 4f 86 78 ba 31 bf 92 a4 ce fc bb 3d b5 bf
       -0.00027051393982148035 -0.08297324106264828
000070 51 fa 84 2c 58 4f 94 3f 6b a3 26 01 7d 84 7e bf
       0.019833924977542165 -0.007450569437801184
000080 e0 63 d9 a8 8c f4 a3 3f 1f bf 6d 93 8f 56 6d 3f
       0.03897513924739093 0.003581314489046763
000090 81 20 7e cc 7a 96 95 3f f7 9c b3 21 cd 75 b9 bf
       0.021081846934550178 -0.0994537551192599
0000a0 41 0b 00 78 a8 6a bb bf 53 1b d2 38 65 9e a7 3f
       -0.10709622316066449 0.04613033598530216
0000b0 00 f5 d6 73 88 13 b9 3f ad c4 43 ed 37 7e b9 bf
       0.09795430019490325 -0.09958219091983507
0000c0 c1 f4 cb 69 51 d8 a6 3f b3 28 c1 16 f2 c9 91 3f
       0.04461912552322068 0.017371924055887344
0000d0 cc 8f fe 6b 14 3c bb 3f 2e 8b be 68 6c 6c c6 bf
       0.1063854945810469 -0.17518382181614228
0000e0 26 5b d3 f9 27 03 88 bf 46 b1 30 e6 8b 4f c1 bf
       -0.011724769889423902 -0.13524006595378973
0000f0 c4 17 23 af 58 42 ac bf c5 ca 00 6f 6e 47 92 3f
       -0.05519368303207231 0.017850614094821155
000100 4e 24 b3 8d 41 25 b7 3f 34 88 db 89 a9 55 b9 3f
       0.09041223248927219 0.09896335235274095
000110 01 53 91 60 cf 56 c3 3f b9 2e 54 0b 60 b1 94 3f
       0.15108673300951384 0.02020788258691539
000120 d0 96 5b 4d ca 1b c7 3f e0 d6 75 a2 4c 6b c0 bf
       0.180535590908383 -0.12827451641685794
000130 e8 4b 0d 9c b2 fe a4 3f de 3f a5 ce 0b 85 b7 3f
       0.04100568919115927 0.09187387270981115
000140 61 aa 6b f1 dc 73 a0 3f cc 54 b6 95 9d 91 b2 bf
       0.032133964987072224 -0.07253441720088744
000150 cc 26 b4 a2 10 b6 80 3f 0b 12 36 73 da cd 9b 3f
       0.00815976139576282 0.027152455598768593
000160 8c d9 4e 33 55 57 93 3f 34 b4 e9 09 e3 0f ba bf
       0.018887835747329926 -0.10180491439832978
000170 ce 3b f5 95 bd 55 ca 3f dd 32 3a e2 94 90 a1 3f
       0.20574159452595925 0.03430619489254181
000180 32 3e c8 0d 69 b1 96 bf c4 52 55 b7 11 c1 b0 bf
       -0.022161141840170547 -0.06544600225363256
000190 68 0e 9f b8 72 80 ac bf 1a 85 97 37 b9 9e c8 3f
       -0.05566748145750183 0.19234385694930084
0001a0 71 32 ec 13 51 79 bb 3f d1 0a 71 46 90 b4 c6 3f
       0.10731989609139149 0.17738536300210808
0001b0 b6 26 d9 58 56 ec 9e bf 02 d3 8e aa 8e ce 90 bf
       -0.0301984302261988 -0.016412953529385106
0001c0 8b 2d 88 b1 82 69 81 bf 6c b0 ba c2 1b 4a ca bf
       -0.008502026598782539 -0.2053866101099432
0001d0 b3 19 96 15 6f 3b 9d bf 35 29 cf e3 88 d5 9d bf
       -0.028547034924054148 -0.029134882835742466
0001e0 bf fd ef 2d 77 aa 9a 3f 77 3a db 0f 8a fc c7 3f
       0.02604089944725074 0.18739438795315141
0001f0 26 22 55 d4 3f 0e a2 3f e4 6b cf ff 2e d3 af 3f
       0.03526496378851034 0.062158077933155004
000200 95 cc 10 e7 07 41 c2 3f 93 e0 f3 e0 fa 98 a9 bf
       0.1426095846414667 -0.04999526973728154
000210 df 76 5d 89 27 2f b7 bf ab e0 8d 0a 98 e9 bd bf
       -0.09056326964988724 -0.11684561021491173
000220 26 c4 aa f8 f9 90 ad 3f 18 5f 09 54 04 2e c2 bf
       0.05774670753942983 -0.14202932456350292
000230 0b 77 c2 fa 2b e7 bf 3f 32 81 c9 37 2f 02 9c bf
       0.12462115165768865 -0.02735208299634557
000240 fd 5c f8 3e fb 30 b5 3f f1 9a 28 5f e8 5c b4 3f
       0.08277864730222358 0.07954265902717929
000250 a5 8e 3e b6 ef d0 b3 3f 83 3d 15 1b 33 05 bc 3f
       0.07740686606717391 0.10945434008794135
000260 e3 f7 68 cc 76 74 b2 bf a3 b0 1d 4d 16 ff 9b bf
       -0.07208960047225292 -0.02734026761702125
000270 96 f2 e7 8e 10 f8 be 3f 16 9c e1 f3 ff df 84 bf
       0.12097266663472292 -0.010192870741049059
000280 58 3d 47 55 0f c8 c3 3f b5 45 a7 3f c0 6d 94 3f
       0.1545428434751368 0.019949916730018297
000290 a1 5c 32 34 fe 99 98 bf 22 ef e8 60 72 92 b7 bf
       -0.024024936614833185 -0.09207835069622353
0002a0 dc d3 31 e4 19 7d bf bf f9 a4 eb 02 ab 16 9b 3f
       -0.12300264187963655 0.02645365910840256
0002b0 29 cf 57 f2 7f 6e c1 bf 33 12 e8 87 1d b5 b4 3f
       -0.13618468602327852 0.08088860099821531
0002c0 14 70 d5 d5 c2 ab 87 bf ff 7b c0 63 5a 4c b3 bf
       -0.011558077002227697 -0.07538380561207701
0002d0 fa 8e d3 ee d7 67 b9 bf a9 6f a6 f0 f0 dc c4 3f
       -0.09924077587816874 0.16299258947844678
0002e0 5c 70 b3 ee cb 33 c2 bf 9f ca 7d 31 5d b4 a2 bf
       -0.14220570712393765 -0.03653231839316117
0002f0 6b f7 25 7d 2d 28 b1 3f 0e 45 84 3e bf 6b c0 3f
       0.06701931290987566 0.12828817894527628
000300 dd 79 db 5b 6f cf ba bf fb 2b be 5b 86 00 c5 3f
       -0.10472770683870843 0.16407851676589744
000310 19 09 6f 0a 78 0f ae bf 7d e0 f3 b8 c2 c8 c6 3f
       -0.05871176841130161 0.17800172835245923
000320 66 02 04 e6 40 d1 b5 bf 75 30 1c 28 fd 62 c1 bf
       -0.08522420516602267 -0.13583340128423385
000330 3c 47 24 bd d4 d2 70 bf ef 7b 96 b5 ce b5 be bf
       -0.004107314120362745 -0.11996166165634724
000340 cb e4 09 da 5a 80 b0 bf a8 c8 59 08 33 fa a7 3f
       -0.06445854018410839 0.0468307445234058
000350 e5 7a 31 d3 b6 60 b5 bf 64 77 da 8c 5e 12 c5 3f
       -0.08350699096761678 0.164623087669436
000360 89 4e 86 d4 f9 ef b9 bf 20 b6 70 4e 37 47 af 3f
       -0.10131799162473433 0.0610902102711004
000370 97 ee 52 fb 7e de b0 3f 8c 9c fb 37 8a 83 ba 3f
       0.06589501987303446 0.10356963984269124
000380 33 e7 6c 52 f0 75 a1 bf 56 31 e5 20 24 e5 b7 3f
       -0.03410292631310909 0.09334016612155457
000390 3e 97 d1 63 89 73 9c bf b4 3d e1 ba 5f b4 c2 bf
       -0.02778448745484429 -0.1461295759677178
0003a0 8d ad 7e 54 13 8f c2 3f 25 1e 8b b4 e8 d6 c1 bf
       0.14499131799435042 -0.1393710023460112
0003b0 f9 8d 17 17 31 0d c5 bf ce fd 2e f0 99 f8 bb 3f
       -0.16446508052386813 0.10926210512024356
0003c0 76 c1 16 4f e2 4e c0 3f 14 ad af 58 83 11 c1 bf
       0.12740734922182256 -0.13334695654280238
0003d0 ac 27 0b 25 7b 8e c4 3f 53 15 0a 98 97 a5 a0 3f
       0.16059817608612315 0.03251336794805106
0003e0 7b e7 ef 49 e7 b0 9f bf b9 60 04 5c 89 a0 c0 bf
       -0.03094827069069293 -0.1298991870214701
0003f0 b1 10 bb 59 08 01 b9 3f f4 e1 26 b3 49 77 a8 bf
       0.0976720065182828 -0.04778509437477743
000400 32 83 9a e4 c3 92 c0 bf e9 fc 55 ff 50 b3 c0 3f
       -0.12947891866954248 0.13047230212757846
000410 f0 08 ef cf fc 92 a1 3f 2a 25 2d c8 6e 51 a6 3f
       0.03432455099347631 0.04359003251608791
000420 2c 4a 8b 44 5c 9a 7f bf aa c2 83 21 42 95 c5 bf
       -0.007715568943881961 -0.16861750256022862
000430 5e 72 16 e8 13 c6 b4 bf 73 f7 e4 7f 74 9a c1 bf
       -0.08114742675975026 -0.1375260948643092
000440 b0 09 80 ab e4 dd 8e bf cb 44 09 70 54 5b c3 3f
       -0.015071665271538887 0.15122466536062115
000450 3e 8a 95 b5 71 76 87 bf f5 3c 15 1f 09 fd b6 bf
       -0.01145638308907337 -0.08979851731168138
000460 44 ae 10 fb 81 f1 b7 bf 42 98 00 47 65 51 ba 3f
       -0.09352886561890111 0.10280449851470144
000470 ae 21 0b b4 7f 35 b4 bf a4 03 da 1d 03 1b a2 bf
       -0.07894132752983893 -0.035362336534496636
000480 9e db 96 f7 29 07 b0 3f af 59 78 a9 08 1f a4 3f
       0.06260931296024672 0.03929926937796623
000490 8f 71 1c 4e 4c 17 aa bf d9 3f df 5e 23 57 c2 bf
       -0.050959000144049964 -0.1432842458002586
0004a0 42 59 fa 65 d1 e4 a4 bf 76 88 e7 45 95 b1 c4 bf
       -0.040808242510296924 -0.16166940606405306
0004b0 81 29 7e f1 02 d8 ba bf 24 fc 83 0a f6 ef bc bf
       -0.10485857387371846 -0.11303651577689827
0004c0 0c 8f 26 a2 78 ff 9e 3f 0c f0 a1 db b6 b0 4c bf
       0.030271420380485956 -0.0008755581723245433
0004d0 4e 45 d7 85 cd df c4 bf 1d d3 4b 1f 90 a3 c3 bf
       -0.16307992015075928 -0.15342904594549447
0004e0 28 bb 14 cf 04 00 96 bf 99 1e d5 d0 93 d4 bf 3f
       -0.021484446658344286 0.12433742378663694
0004f0 e7 63 8c 13 61 32 c1 bf 4c 16 e4 aa d7 70 b7 bf
       -0.13434995131026925 -0.09156558916228014
000500 fc 5e e0 89 ab b0 c3 bf 88 42 2e 37 d7 c8 c5 bf
       -0.15382904274223808 -0.17019167131777047
000510 96 80 b7 b6 90 03 b2 3f 9d 6b 8c 63 3d 88 bd 3f
       0.07036690197810666 0.1153601043737766
000520 c0 3a ea 6e ec da c3 bf be be 23 52 58 7b c3 bf
       -0.15511851707238655 -0.15220169077610096
000530 4b 3f 92 be 95 df bd bf 90 35 35 fa 60 81 c3 3f
       -0.11669288542384242 0.15238582818203072
000540 80 d0 67 c9 c9 bf c4 bf 90 af 7c c0 95 2f 95 bf
       -0.16210291227583085 -0.02068933474872342
000550 af dd 8d 96 f0 6b 9d 3f b5 aa 37 9d 89 b0 c1 bf
       0.02873207014951412 -0.13819999863274793
000560 33 85 85 1e 83 12 c5 3f ac e1 35 92 67 81 97 bf
       0.1646274470358918 -0.022954576777438326
000570 d6 03 39 35 8d 3b b6 bf 5f 95 4a 0b 9f 3d c6 3f
       -0.08684618520147977 0.1737555318006043
000580 34 47 d1 c9 68 ac 87 3f 37 f4 c9 56 c4 43 6e bf
       0.011559313448887922 -0.0036944231745210904
000590 28 3c 54 67 e7 a1 98 3f 6d 6a 97 b8 e6 0d c4 3f
       0.024055114442543296 0.15667423260932214
0005a0 98 ef 44 e1 33 de c3 3f ff 2d ac e8 fc 1b b7 3f
       0.15521858691670043 0.09027081184847673
0005b0 22 67 a1 5d da 70 a0 3f fa 86 47 a8 1a 18 90 bf
       0.03211099999380297 -0.015716949959716488
0005c0 37 bc a3 13 be 28 c1 bf 77 e4 01 45 fa 36 b3 bf
       -0.13405586203541173 -0.07505764183760442
0005d0 41 cb 34 21 ed 9e a5 3f 77 5e 8c c1 a3 a7 a5 bf
       0.04222813635205692 -0.04229461419725749
0005e0 4b d2 57 b3 86 bf bf 3f 9a 7d 5f 01 57 29 be 3f
       0.12401620748989577 0.11781829627533683
0005f0 36 ad 46 b7 76 16 bf 3f 73 69 18 d3 37 99 bb 3f
       0.12143651937974628 0.10780667213149346
000600 e0 03 4c 91 bc 50 ae 3f 66 49 b2 5f f2 1d 88 3f
       0.059209721313898234 0.011775868935988764
000610 64 ca 9f b4 ad 12 8d 3f b2 5e a1 4b e6 a6 b3 3f
       0.014195782732689462 0.07676543566173669
000620 73 bf fe 5b 47 a0 c0 3f 32 52 b6 cf e0 4e b3 3f
       0.1298913191981189 0.07542233534906798
000630 19 c5 d1 08 ec eb c3 bf bc cd 39 42 c4 d0 c1 bf
       -0.15563726835856853 -0.13918355210954114
000640 14 cc 0a 68 72 46 c2 bf b5 f7 e3 19 72 2d cf 3f
       -0.14277486877617263 0.24357439293083663
000650 1d 3b 11 7d 9e a6 c3 bf a5 8a de 4e 81 bf 7a bf
       -0.15352231127550278 -0.006530289754581507
000660 bb 9a 3e b1 d7 1f a2 3f 33 2a f5 5a 41 a6 c1 bf
       0.03539918936376326 -0.1378862089280389
000670 53 d3 8c cd e2 38 c1 bf 55 8f a6 4d 0e df a4 3f
       -0.13454852139116244 0.04076428125270463
000680 50 78 b8 8b fc dc 65 bf 14 48 94 e2 09 0a 8b 3f
       -0.002668851140483354 0.013202740885876842
000690 82 85 28 c7 42 67 81 bf e5 bd 22 23 58 ad c0 3f
       -0.008497735693768108 0.13029004779444545
0006a0 60 30 3b f2 27 20 c2 bf 56 f0 46 24 19 18 c7 bf
       -0.1416063244599881 -0.18042291900008206
0006b0 70 b0 46 d6 e3 e5 80 3f 6a 35 4e b6 f3 15 c2 bf
       0.008250980354965715 -0.14129492189060083
0006c0 99 f8 78 33 16 f3 c2 bf a1 1b fc a7 2e f1 bf bf
       -0.1480434180575159 -0.12477389908973048
0006d0 d3 1d 74 5b fa 24 ac bf fd 0c 20 08 fe 19 9d 3f
       -0.05496961943031988 0.028419465299532643
0006e0 b6 94 01 21 f2 dd 92 bf b0 ca 72 0e d7 a3 b9 3f
       -0.018424781097924302 0.1001562509798457
0006f0 e3 06 a6 3c 18 85 ba 3f 22 e5 79 a9 24 69 bd 3f
       0.10359336357762632 0.1148856080780161
000700 3b d4 ac 27 fe c9 a2 3f db ec c3 fb 41 c7 93 bf
       0.03669733270945882 -0.0193147954860081
000710 e5 de 2f b4 54 78 73 3f ad ea 3f 2f 9c 9f ae bf
       0.004753428339419695 -0.05981147839334731
000720 0d 82 d4 38 29 03 bd 3f e5 73 2d b9 6a 7e c4 bf
       0.11332948338941425 -0.16010793725845854
000730 e0 fc 96 ad 0e 35 bd 3f 83 55 f6 e5 eb 86 b2 3f
       0.1140908407023633 0.07237123836815411
000740 a6 80 16 c1 67 d9 60 bf 3a f5 e6 da 74 9a 93 3f
       -0.002056791920679829 0.019143892155388566
000750 2e 46 cb d7 82 cb b6 bf 8c ea 3e 4a c5 07 97 bf
       -0.08904283302697344 -0.022490580231286958
000760 86 73 63 80 f4 58 b1 bf 3b 55 20 1f 71 ad b1 3f
       -0.06776359686359798 0.0690527630798287
000770 cb a3 51 e7 76 0b 95 3f 87 de a5 bf b3 17 b5 bf
       0.020551545971475165 -0.08239291600136243
000780 da 76 7c 6a 95 93 a4 bf b9 7b 44 38 b1 0f bd 3f
       -0.040188473938753425 0.11352069495886398
000790 45 2c 89 b4 b8 e5 c5 3f 99 4c 16 df 21 fa 87 3f
       0.17107304396845016 0.011707558270052142
0007a0 f9 d7 c3 77 72 b8 93 bf 0f 9b 97 03 7e 8a c5 bf
       -0.019258297500492436 -0.16828894782448642
0007b0 1c ac da 9c 97 66 c8 3f b7 c5 38 0b 8d 11 b2 3f
       0.1906308666123956 0.07058030628174704
0007c0 e8 23 31 e1 59 55 a3 bf 0b 8e 92 7e 9a f5 87 bf
       -0.03776055215764257 -0.011698920238194984
0007d0 ae c9 8b 1b 3e 7b 97 bf d6 e1 06 19 57 86 a3 bf
       -0.022931070739056807 -0.038134309582747924
0007e0 55 fa 41 21 2e 39 a5 bf 63 5a ec ba f8 b7 b4 3f
       -0.04145187526681996 0.08093218387180338
0007f0 c1 47 6b f3 47 9f c5 bf d1 8f 9d b5 c3 a5 a7 3f
       -0.16892337213226763 0.046186557693345905

1.bias f8 [32]
000000 62 54 84 4b fa a4 9d 3f fb ba 79 de e7 18 c6 bf
       0.028949652537523803 -0.1726350628191183
000010 70 f8 39 c5 94 9c b6 3f 61 51 60 8b b7 b2 c3 3f
       0.08832673850153738 0.15389150910835794
000020 c4 9c 3c eb 7b 8d bb 3f c9 4f c1 44 5a b5 b8 3f
       0.10762762539944776 0.09651722124664198
000030 e9 93 eb 2d 80 c2 c7 3f 72 4c c8 41 de 76 ab 3f
       0.1856231903285839 0.05364126732833875
000040 ca 12 bc 60 fe f3 b7 bf b8 79 b8 06 4e e7 c3 3f
       -0.093566797844754 0.1554963620009866
000050 26 15 41 af 87 9e c0 3f 3e 7d d4 c9 bf 18 a7 3f
       0.12983795220694921 0.04511069620843465
000060 17 6f ac 5d 1b dc 82 3f 95 d0 7b 10 91 36 c5 3f
       0.00920888309115457 0.16572774224153322
000070 b9 32 2f 61 8a dc a9 3f 64 89 23 d2 2b 91 b2 bf
       0.050510715831113946 -0.07252763634054343
000080 41 b2 6b 2b 36 af ca bf 74 2f 30 bf 05 57 c0 bf
       -0.20847203369284453 -0.1276557143722773
000090 49 dd 77 14 64 e7 6f bf 0a da 42 a4 0c 90 b7 3f
       -0.0038945154844857483 0.09204176912576414
0000a0 ef 9f 13 0a 8c 25 b0 3f 91 7e 74 bd 0f 0b db bf
       0.06307292219173609 -0.4225501394412073
0000b0 d8 7f 46 83 bb d9 8a bf fc 44 2c 81 39 01 ae bf
       -0.01311060423250858 -0.05860309316461529
0000c0 64 e6 41 ef 7d 07 c7 bf 35 a8 55 f6 a3 ac c6 3f
       -0.17991613562098785 0.17714356926018274
0000d0 87 63 ac 5f 6d 61 bb bf ca a0 1e 20 82 46 dd 3f
       -0.10695537172104085 0.4574284852665299
0000e0 7a 0d ff 7d 73 a1 c4 3f c5 3f b9 fa 94 e0 aa bf
       0.1611770978180223 -0.05249467430678537
0000f0 c9 7b ee 53 69 e0 b7 3f 5a 25 08 68 3a 7d c1 3f
       0.09326799677954435 0.13663415984801014

2.a f8 [1, 32]
000000 78 d2 8e f1 14 b0 ef 3f 7c ce 22 49 65 a9 b8 bf
       0.9902443616798129 -0.0963347724489782
000010 af dd d6 1e ef 2f ca bf 13 90 8f a7 df 71 00 40
       -0.20458783155275514 2.055602368420304
000020 d8 80 6b 0a 0c 71 ef 3f a9 f9 83 c5 f7 f0 e5 bf
       0.9825496867670394 -0.6856650216794168
000030 c7 7d 3f 81 a8 e6 f7 3f d2 b7 c3 d1 9c 93 ec bf
       1.493813042521525 -0.8930191132510521
000040 b7 85 89 da de 75 ff 3f d1 ae 6c a8 17 62 fc bf
       1.9662769829377404 -1.7739483431895915
000050 96 61 06 41 25 83 a3 3f 00 d5 83 48 9b 23 f4 bf
       0.038109935939419845 -1.258693011533353
000060 31 97 30 af d4 78 d8 bf 76 09 1e ed 6c db f2 3f
       -0.38237492664699163 1.1785706770320679
000070 fe b9 25 df d1 21 cf 3f 71 3d ad f9 c3 34 e5 bf
       0.24321959873073234 -0.6626911045549787
000080 c3 d4 4b 75 a2 ce d8 bf 09 96 8f b6 d2 0a c9 bf
       -0.3876119752379276 -0.1956427947435915
000090 c5 3f 09 40 6d 76 f9 bf 11 14 4b c7 41 96 c6 bf
       -1.5914127828036595 -0.17646047812573376
0000a0 1c 06 76 ab 2e 55 f6 3f 5b c6 be 68 8b 31 d1 bf
       1.395796460885669 -0.26864896039032765
0000b0 7f 2e 43 06 89 0c ed bf ce a7 38 47 a6 66 e4 bf
       -0.9077801821053554 -0.6375304595032902
0000c0 2e 5a c4 1c 4b 05 dd bf 4b 80 3f 5d dc 9f e9 bf
       -0.4534480839660401 -0.8007642575503352
0000d0 1e 85 60 e7 00 51 eb bf 9e c3 95 1a 7a 55 d3 bf
       -0.8536381262858048 -0.30209210010712606
0000e0 f3 09 7e 50 aa e8 f9 bf 8a ea ae c1 4c 3b c5 bf
       -1.6193030494911198 -0.16587218720617997
0000f0 6c b8 db 1f 27 f4 d5 3f 70 91 a9 ea ec 1f e5 3f
       0.3430269061199229 0.6601471503495713

3.weight f8 [32, 32]
000000 b7 f9 35 aa 7b 34 c6 bf 0b 4f 72 f4 54 fd b6 bf
       -0.17347665606571436 -0.0898030373376139
000010 76 03 90 4b 20 6b c2 bf 95 5b b3 8c 51 b4 c5 3f
       -0.14389423074319624 0.16956538553378367
000020 5e 9b 57 31 fc de ab bf 3e e7 78 d7 1d 5f af bf
       -0.054435616515368976 -0.06127255683209264
000030 f3 fc 5a 02 ac 6a 97 3f 9c 78 f0 00 9b 0b b2 3f
       0.02286785854698521 0.0704895856183349
000040 8d 57 cf 71 c3 e0 b9 3f 30 bd a3 76 3a 4a c4 bf
       0.10108586815417038 -0.15851527016591538
000050 ad b1 f7 e6 80 fb b2 bf 41 b6 bf 63 6b 7c b7 bf
       -0.07415013922554321 -0.09174224076533567
000060 24 9e 0f ce 04 ec c2 bf 18 f2 2d 0c 5f f6 b0 bf
       -0.1478277212292919 -0.06625932738638374
000070 fa d8 c2 03 09 4e b2 3f d9 fa 8c 1c 75 bb b0 3f
       0.07150322286438274 0.06536037394560469
000080 bc f0 2d 6f ab 62 b4 bf 69 97 36 ec 5e ca bd bf
       -0.07963057960836556 -0.11636918322491642
000090 a3 58 f8 e5 de fb bd bf 4e 0d c5 b1 1d 91 c3 3f
       -0.11712449182991462 0.15286608867800527
0000a0 4c e4 88 d4 6f 3e a3 3f 2d 1b a2 e3 ee 9d af 3f
       0.03758573026102194 0.06175180939412992
0000b0 a6 f0 4a d4 75 7b a6 3f 4e 7e c7 a4 28 15 b4 bf
       0.04391067711319012 -0.07844785712176724
0000c0 4b 2d cc 8b ca fe ad 3f b0 2d 82 ee 3d 2b b5 3f
       0.058584527554638464 0.08269106934510861
0000d0 34 08 2d e1 39 f3 c0 3f e5 68 51 72 d9 43 ba bf
       0.13242267126958185 -0.10259779969183887
0000e0 93 91 9c e6 fe a6 c4 bf bd 1e 19 d4 ef ee ba 3f
       -0.1613463045151887 0.10520838668991934
0000f0 a8 6e c1 bd bd 5d c5 3f 7a 58 c8 52 7c 64 aa bf
       0.1669232536831846 -0.0515478945782641
000100 a5 16 70 6d 6f 9d be bf 66 24 46 b6 63 08 b5 bf
       -0.11958977147886658 -0.08215926361130385
000110 6f fc 88 f0 50 d6 97 bf cc 0c 01 13 a1 f5 c1 3f
       -0.023278488808724903 0.14030850818571705
000120 69 61 68 66 8d b7 c4 bf de 8e 5e 48 ba 5b b1 3f
       -0.16185157299402 0.06780590311842213
000130 5d e8 78 89 29 47 c0 bf 8f 57 dc 18 de e1 b2 bf
       -0.1271716996432727 -0.07375896555853799
000140 81 b3 d5 a6 a6 35 c0 3f e3 e1 a3 6c d1 27 a2 bf
       0.12663729807118432 -0.03546003771947761
000150 5d 0c 31 87 7c 40 a4 bf 38 f9 85 4f 52 61 ad 3f
       -0.0395544924763491 0.057383129317701564
000160 e7 f0 9f e7 07 8b c5 bf 98 5b 7a ef 67 08 80 3f
       -0.16830538568309025 0.007828533168589932
000170 db db 19 bc ed 36 c3 bf 4f 87 71 fb c7 0b b1 3f
       -0.15011378941173245 0.06658601654774297
000180 5d 7b c5 48 ab b9 ba bf c6 4a 6a 1b 82 20 c7 bf
       -0.10439558531423417 -0.18067957247384053
000190 11 ca c0 81 ed cd c4 3f b1 8f 69 e2 9e 98 aa 3f
       0.16253441653823633 0.05194565309355371
0001a0 bb 54 c8 9a 6f 67 51 3f 15 15 e2 cd 21 e7 c4 bf
       0.001062258709798854 -0.16330359032523548
0001b0 cd da dd 6a b3 3a a1 3f 20 c1 0f 60 46 71 b8 bf
       0.033650976939431844 -0.0954784378552671
0001c0 b4 42 00 60 c0 b2 aa 3f 2e 97 c8 7c 65 fb b1 3f
       0.05214501544845032 0.07024225517724567
0001d0 af d6 1c 69 1d 3f c3 3f 15 8b 7e 64 8b 61 c5 bf
       0.15036361343816426 -0.1670393219656822
0001e0 8a b4 f6 30 88 55 b5 bf 31 6e f7 64 11 3a 79 3f
       -0.08333636470224995 0.006158893534542951
0001f0 68 31 14 14 10 b3 c2 3f 3e 51 a4 58 db 47 c1 3f
       0.1460895631829644 0.13500539615837143
000200 b5 60 00 8b 97 ec b7 bf d9 52 16 6c 7b e8 b8 bf
       -0.09345385688391412 -0.0972973955998201
000210 c9 8f 23 c9 4a 06 c5 3f 38 88 67 72 46 a4 bd bf
       0.1642545206187818 -0.11578789036823955
000220 f9 f5 99 47 eb 68 bd bf 8a 3f 99 db 56 74 83 3f
       -0.11488218782502448 0.009499243332498759
000230 73 bb b8 30 30 c7 bf bf a9 b4 7a 91 f2 b1 c6 3f
       -0.12413312139027059 0.17730552772028332
000240 80 95 2e e0 64 f2 c0 bf 4f 5d bc 77 f6 16 92 bf
       -0.1323972792280692 -0.01766572099503821
000250 53 8d 39 7f d9 d9 c3 3f e2 a8 29 e4 f9 49 a2 bf
       0.15508574211262757 -0.0357206431406938
000260 93 ab 7c d3 15 41 be bf 78 b1 80 ee 05 99 52 3f
       -0.11818062222725549 0.0011351163793832091
000270 36 da 0b 51 bf 84 b3 3f 50 fb 19 aa 46 75 c6 3f
       0.07624431351346392 0.17545398050057281
000280 e6 1d f1 0b 39 3e bd 3f e6 7d f0 9a de f2 aa bf
       0.11423069516705872 -0.052634197629455134
000290 10 a7 1c 62 98 74 ae 3f 5f 7f 45 ab 95 9b 8b 3f
       0.05948330114035916 0.013480347909250843
0002a0 83 8c 65 6f 62 fe bb 3f e9 10 a9 3c cd 2a c1 3f
       0.1093503496136226 0.1341187044328145
0002b0 e1 95 a7 e4 a7 2b 76 bf d7 de f9 9d bd 5b b5 bf
       -0.005412727196448115 -0.08343110186421697
0002c0 c2 f4 ca f0 61 84 bf bf 00 4e 87 59 8b 39 c3 bf
       -0.12311374787073517 -0.15019361373434492
0002d0 e8 29 1e 19 33 0c c1 bf 8d 4a d9 de 7b 35 96 bf
       -0.13318480230766672 -0.021688399769411993
0002e0 26 6f 29 82 4b 9d c9 bf fd 1b c2 4c 71 1c a1 bf
       -0.20011276107367698 -0.03342012464513997
0002f0 f5 33 da 6b c4 59 c2 3f 17 f5 ef 6d 20 ce a8 bf
       0.14336447969654356 -0.04844762174614397
000300 fd 63 f8 cc ca 02 93 3f 0c e7 eb 56 f8 ae c8 3f
       0.018565338859932713 0.1928396629735335
000310 e0 e4 da f9 11 ac c1 bf 73 16 5d 3b ad 34 c2 bf
       -0.13806366634324885 -0.14223256491293376
000320 9f d7 c1 74 02 0e bc bf 40 5b 05 a9 4b 63 bd bf
       -0.10958876944081773 -0.11479637981879609
000330 e0 07 b9 79 c0 0d c5 3f 55 c0 40 81 90 b5 c3 3f
       0.1644821733808035 0.1539784079664083
000340 b0 22 65 26 bf 85 c4 bf 58 fd 92 29 20 6e a0 3f
       -0.16033162474402252 0.03209019191262524
000350 9a bd e6 08 3c d7 b5 3f 34 5a 3a b1 f4 64 a6 bf
       0.08531546799962655 -0.04373898185183514
000360 86 a2 84 3b a3 5f b5 3f 04 a6 c8 37 ae 92 c3 3f
       0.08349056437567456 0.15291383479898013
000370 44 a0 07 23 c7 4d b6 3f 12 3a 74 31 e7 53 9d 3f
       0.08712429623813117 0.02864037741988496
000380 98 e2 d0 13 1d 7b b6 bf 90 8a 40 db 80 47 ab 3f
       -0.08781606420314814 0.05327990223328982
000390 70 bb 91 df 05 a7 a3 3f d7 18 96 b9 66 02 be 3f
       0.03838365892521878 0.11722414046207362
0003a0 ce 0e 92 bc a2 00 a2 bf fb c8 87 91 c2 f6 c4 3f
       -0.03516109992872672 0.16378051858880113
0003b0 90 ee 23 7f 3e 85 c5 3f 13 52 9c b2 6a a4 c2 bf
       0.16812878807092035 -0.14564260216924704
0003c0 de db 77 bc 73 41 bf 3f 22 81 51 6e 66 94 9c bf
       0.12209246970438367 -0.027909851535128934
0003d0 9b d4 74 c5 34 ce c2 3f e9 1a 0a 2b 3d ca ab 3f
       0.14691791192459366 0.054277335647432264
0003e0 60 5e d2 37 36 60 c9 3f 85 2a ec 0c a0 00 c0 3f
       0.1982486507956649 0.1250190795038472
0003f0 06 12 a4 dc bc d6 b4 bf f8 7f 63 b0 3c c3 b0 3f
       -0.08140163790455554 0.06547908121456192
000400 ac c7 c2 17 71 10 c4 3f 44 3a 87 f1 6e 5c c8 bf
       0.15675176296423154 -0.1903208426796984
000410 7e cd e5 2d 3e 0a c0 bf 01 40 a6 23 25 7e c6 bf
       -0.12531258812996876 -0.17572464218801545
000420 73 ca 5f 5f c4 df 8a bf af a6 de 00 66 e2 ac 3f
       -0.013122114334668233 0.056414783102196046
000430 cc aa 61 c4 16 18 b5 bf 65 e0 8c 22 6b 5b b6 bf
       -0.082398817963319 -0.08733243554604682
000440 15 44 cb 63 f8 1b a6 3f fb 39 16 f6 5d 8e b2 3f
       0.04318214624584741 0.07248484857539232
000450 95 38 a2 24 d6 b6 a3 3f e1 48 2b 2b 07 c8 b8 bf
       0.03850430676639963 -0.0968021850960983
000460 7f 9d 30 ae 94 0e ac 3f d4 cb f1 39 3c 84 a5 3f
       0.05479874254552452 0.04202449996309779
000470 a3 24 de 8a 50 40 ab bf e7 d0 53 b4 ac 43 b0 bf
       -0.05322505660212442 -0.06353263285183496
000480 e4 22 99 40 8d 91 74 bf 06 ce 74 0a c4 e0 c1 bf
       -0.005021621481838354 -0.13967180738983148
000490 28 7a af 3a 28 f9 c7 3f 5b c0 cd 61 c9 50 c8 3f
       0.1872911726522528 0.18996541286060417
0004a0 0c de bc b3 74 7b b1 bf 8b ad df ac 6f b7 d8 bf
       -0.06829003704194053 -0.3861960590572486
0004b0 5e 26 45 8e 0a 00 b4 bf 6a cd 2d 6f 8c 10 b7 bf
       -0.0781256291712906 -0.09009626116112704
0004c0 dd d2 03 27 e2 3f c2 3f a9 bd 7b f6 c9 ec bb 3f
       0.14257456688905892 0.10908186214122985
0004d0 f3 5d 80 40 69 60 7a bf 17 b1 01 86 fb 68 b2 3f
       -0.006439601078475732 0.07191440602918352
0004e0 0e 4d 12 d7 c0 63 b6 3f 72 df 81 7d 94 f0 a4 bf
       0.08745961428421742 -0.040897980042187934
0004f0 57 c4 57 e4 c4 c8 cb 3f d2 91 f7 95 cf b9 b7 3f
       0.21706448697617262 0.09267899905496016
000500 b9 99 18 b4 16 b0 c0 3f 7a 21 d7 4e f2 cb b7 3f
       0.13037380021814984 0.09295572686017364
000510 05 d6 82 d3 ee 05 b7 bf 1a 17 17 24 72 72 c1 3f
       -0.08993427909702952 0.13630511057106603
000520 09 da 35 a9 1d 81 c2 bf f0 a6 76 a5 45 6b c2 3f
       -0.1445653034422352 0.14389868335029332
000530 60 73 7c 13 b0 82 b5 bf 9e dd a7 68 08 6b c3 3f
       -0.08402538753257494 0.1517038832678112
000540 ed b9 1e f9 52 ac c0 3f 6a f4 4c f1 36 ef a8 bf
       0.13025891460479447 -0.04870006270946521
000550 7f 35 76 41 08 b2 b0 3f d7 63 7d 3a e2 13 a8 3f
       0.06521655653178547 0.047026700630062805
000560 6d 99 45 3a 9e d2 c9 3f 66 86 ea a1 2b 47 aa 3f
       0.2017400536089541 0.051324237361097855
000570 42 fa 77 ed e2 c3 b1 bf 52 16 cf 5f 90 06 b4 3f
       -0.06939523980688825 0.0782251581104785
000580 15 36 cf f7 c9 df a0 3f 3f 17 4c df 52 86 c6 3f
       0.03295737409608194 0.1759742346113686
000590 c7 b5 d6 64 77 94 c0 bf 6b c0 16 41 54 47 96 bf
       -0.1295308344246406 -0.02175647399207074
0005a0 39 f2 5d 05 e5 ba c6 bf b2 24 91 f7 05 35 cc 3f
       -0.17757857095775068 0.22036814296942492
0005b0 cc 5d 3f 4b 52 25 b9 bf 8c 4d 0d 38 de c3 bc bf
       -0.09822573029611376 -0.11236370914894261
0005c0 32 02 be 69 fa 3c b5 bf ad 59 ca 2a d4 46 c3 3f
       -0.08296170312497322 0.15059902276398188
0005d0 3f 64 30 5b 73 7a bd 3f 48 c2 94 7a db e0 bb bf
       0.11514969803137463 -0.10889980070783978
0005e0 50 a4 f7 3b 7c ec aa 3f 15 ef cc 98 c3 cc aa bf
       0.052585489578469535 -0.05234347572556267
0005f0 7c 6b fa bb 06 6a a4 3f a0 91 06 c0 e1 57 ac 3f
       0.039871416517789776 0.05535798520148494
000600 b3 b5 2a 49 8a e4 c3 bf c7 9d 43 66 09 8b b6 3f
       -0.1554119927654206 0.08805903193171281
000610 36 ac 39 dd e4 e1 c0 bf 98 8c 7a a4 2e 4f b4 3f
       -0.1318937378121931 0.07933322444528057
000620 7e cd 08 a9 dd ce b5 bf 4b 7e d2 4c dd 18 b6 bf
       -0.08518777252975515 -0.08631690145056685
000630 4c cf c0 b1 cf 5b 35 bf 77 5a 11 f1 d5 5d c0 bf
       -0.00032590695059585696 -0.12786363860023517
000640 f5 ea 04 55 40 1e b0 3f 75 43 d0 98 f8 66 a6 3f
       0.06296159816421805 0.04375435700797584
000650 66 df a4 a7 ac 42 b4 bf 93 b8 1f de 24 8a c2 3f
       -0.07914237110969466 0.14484082075017976
000660 80 ca f1 a3 85 3e 7c 3f 6a 21 40 58 46 32 ab 3f
       0.006895563156933293 0.053117941162841145
000670 75 ce 0a 56 fe 8e cd bf 5f 89 59 2b 03 58 b7 3f
       -0.23092631531982347 0.09118671234458507
000680 93 6b 7a f7 17 2f bd 3f 12 c8 ee 23 83 0b a4 bf
       0.11399984161327685 -0.03915033162719807
000690 64 c0 db fb ac 34 bd 3f c8 fd ac 09 fe de 99 bf
       0.11408501767050577 -0.02526471075111461
0006a0 41 4d b4 2e e6 d5 c2 3f e2 f3 e5 91 14 56 c1 3f
       0.1471526840256079 0.13543946384370914
0006b0 21 bb 39 b5 44 4b c0 bf c3 07 21 56 72 e3 90 3f
       -0.12729700898076948 0.016492640025042037
0006c0 20 cd 55 96 c6 1d c6 3f 43 bd 83 1b 4e a9 b4 3f
       0.17278368321022075 0.08070839092009856
0006d0 48 bd fe e7 8c 00 60 3f c7 d6 b6 18 32 64 c2 bf
       0.00195338745830723 -0.1436827297854306
0006e0 40 0c 7c 28 6c b6 a8 bf aa eb 23 5a 47 46 ac bf
       -0.048266773168528676 -0.05522368407579077
0006f0 e4 47 80 67 80 95 ca bf 06 97 3b a1 51 11 8e 3f
       -0.20768742612614155 0.014681470616277458
000700 f9 46 19 cd f5 29 97 3f b9 c9 20 23 5e a6 bc 3f
       0.022621002810700983 0.11191356999987691
000710 d5 93 63 e1 3a e5 c1 bf 72 fd ac 4f 37 f5 97 3f
       -0.13980804448433895 0.023396362531682376
000720 55 d8 da aa bf 31 b2 3f f2 ad 4d f4 7d 1b c3 bf
       0.07107160493146243 -0.1492764895332211
000730 a4 cc 85 43 6c c3 7e bf 20 c1 b0 01 9f 28 5b bf
       -0.007510588555635387 -0.0016576340483532362
000740 ce 38 5b 2a 5b 3f cb 3f 5e 19 42 2b 6a 51 7e bf
       0.21287097519092985 -0.007401861879890196
000750 db 8f 06 51 22 e2 c5 3f 67 20 9f cb b9 08 a1 3f
       0.1709635635025951 0.03326969729056444
000760 08 63 da d2 ac 78 b2 3f b1 b0 ff 16 cd 1e c2 bf
       0.07215385577945821 -0.141564975957754
000770 8c a2 ed 81 cf f9 b1 bf 6a 0e ee 54 e9 e8 b8 bf
       -0.07021805688931176 -0.09730394671901768
000780 75 38 63 f2 23 ac a8 bf 7a c8 a1 ff 10 7d c5 3f
       -0.04818832715828673 0.16787922365216784
000790 ec 8c 89 4e cc c9 8f bf 81 2e cc 7a eb 41 aa bf
       -0.01552161802937354 -0.05128417848581269
0007a0 7b 64 a9 44 e2 0e b6 bf 96 4f e2 73 e6 7d 9d bf
       -0.08616460968313959 -0.028800583670615852
0007b0 ac bc 9a ef 74 25 ab 3f ff e3 76 1a 1b 62 c5 bf
       0.05302014756068138 -0.1670564536305221
0007c0 05 eb 07 74 ea 86 b7 bf 75 7b 9d 1c 32 08 b1 3f
       -0.09190240223680853 0.06653130720722607
0007d0 60 32 92 f4 0e 89 a7 3f 00 1f 19 97 61 08 bb 3f
       0.0459675477551158 0.1055966371433179
0007e0 7d 87 e3 a8 b6 9d bf 3f 75 fc 74 54 6d c3 a3 3f
       0.1235002672506464 0.03860036521882019
0007f0 b3 be aa 7c 18 4f c4 3f 5a 8c ec 75 b8 db a0 3f
       0.15866380774740704 0.03292633475782543

3.bias f8 [32]
000000 5f 15 73 f6 db 81 c4 3f 26 23 00 ca 0b 04 b8 bf
       0.16021298917454893 -0.09381173783925742
000010 53 a4 20 54 40 bb 42 3f c2 f1 be de 1b 3d a1 bf
       0.0005716384987454283 -0.03366934866014361
000020 79 d3 96 15 47 c6 bf bf 6e 9c 0e e6 30 29 b4 3f
       -0.12411922719077308 0.07875352493884843
000030 c7 e7 2e 9f 71 95 8b bf 99 00 40 08 bb 84 9d 3f
       -0.013468635244738082 0.028826639536419483
000040 80 fc 03 cf 82 0b b9 bf 6c 1a f7 10 cb ea bb bf
       -0.09783189348307708 -0.10905141033354376
000050 9e 1c 97 48 20 02 b1 3f c3 5c 0b 20 0d bb 98 3f
       0.06643869182799952 0.024151043968996044
000060 b9 95 30 80 d6 a2 a2 3f 10 ba 86 f0 64 da bc bf
       0.036398604534308494 -0.11270743248199033
000070 e0 78 c3 08 63 b9 a2 3f b2 0b 0f a6 46 2f c6 bf
       0.03657063943841066 -0.1733177481492852
000080 8b fc 6d 52 be a6 b6 bf a2 3e 0f 36 80 11 bf bf
       -0.08848180305902724 -0.12136079139531344
000090 4f 20 7c ca bd 0f c3 3f 84 a6 6e 5c d0 4a c4 3f
       0.1489178885169644 0.158533139355587
0000a0 09 82 8b 8a ca 9a aa bf e3 5a dd 4e 66 f3 aa bf
       -0.0519622129556901 -0.05263824188903301
0000b0 e7 e3 4b 6d a2 69 c3 bf 0d 05 36 9d d9 52 46 3f
       -0.1516612085031561 0.0006812632149576795
0000c0 df 79 b8 65 36 03 c2 bf 45 78 1e 27 19 db 97 3f
       -0.14072303740336076 0.023296731007228528
0000d0 85 9a 1e 2c 14 ee ba 3f ba 96 20 d1 20 32 b7 bf
       0.10519529416215263 -0.09060864549300165
0000e0 54 6e d5 e6 3d 58 9d bf d7 5a 72 be ea 21 b7 bf
       -0.02865692826649842 -0.09036128186776736
0000f0 6d 9c e4 b7 3d e9 b8 3f 09 8a 2d f9 29 bb 78 3f
       0.09730897655082212 0.006037868460085701

4.a f8 [1, 32]
000000 d0 93 0d b9 1c f8 e1 3f 58 8a 32 af 1c d2 e9 bf
       0.5615371336285708 -0.8068984433960606
000010 d3 f9 95 bd da ab f9 bf 25 5d 18 2f af 79 ee bf
       -1.6044566541382792 -0.9523540420367779
000020 0e 64 81 ee 3d 64 e6 bf 4b 10 24 12 23 ba de 3f
       -0.6997365625676382 0.48011090060777367
000030 4e a5 9e 11 f9 0d fa 3f f2 bf c2 47 d9 78 ee bf
       1.6284113586683193 -0.9522520448281269
000040 78 81 28 2e ab 18 e1 bf fc 5a 8d 8c 71 eb d0 3f
       -0.5342613126304476 0.2643703339175969
000050 43 c5 7f b8 35 02 da bf a2 00 8a 29 03 25 f8 bf
       -0.4063848783253727 -1.5090362188930517
000060 32 61 5a 61 85 8a eb bf 38 19 4f 12 44 06 fa 3f
       -0.8606593038012191 1.6265297618097758
000070 52 80 87 1a 49 37 e7 bf d1 05 e1 d7 95 ec ec 3f
       -0.7254987257147241 0.9038800445925351
000080 94 d2 a2 b7 0b 2e e4 3f 72 84 9f 11 6f 65 fe bf
       0.6306208216324927 -1.8997641266253393
000090 ea de 54 5b 54 f6 e0 3f 1c bd b8 6c 91 3e f4 3f
       0.5300695213145137 1.2652754065455332
0000a0 dd e2 ad 06 3d 0f e8 bf 0d 12 da 91 19 7b ec bf
       -0.7518601541952098 -0.8900268410366735
0000b0 fe 54 bc b6 3a c8 f0 bf 29 8c 41 64 cd b2 e6 3f
       -1.0488841188537772 0.7093264539838674
0000c0 45 6d bf 21 34 e5 df 3f 77 6d 3b 72 bc f6 fd 3f
       0.498364479977415 1.8727383100693638
0000d0 46 3c 93 33 49 b1 e5 3f 11 f9 8e d6 ea 22 e7 3f
       0.6778913504912303 0.7230123701663463
0000e0 1c e9 f4 45 a5 73 eb bf f4 c0 18 6b 92 ae a5 bf
       -0.8578668943730778 -0.04234750325520223
0000f0 6b e2 db 61 ef 0b d6 3f 02 df 0e cb 48 5f f2 bf
       0.34447845989737996 -1.1482627803761152

5.weight f8 [3, 32]
000000 32 30 1b 11 17 a7 b3 3f 8c e7 88 fd f1 d7 c2 bf
       0.07676834266311586 -0.14721512679699023
000010 ab 41 04 a9 31 fc bb bf 85 44 dc 49 0c 20 be 3f
       -0.10931692482359405 0.11767651370270656
000020 f6 40 98 05 63 80 b7 bf 83 d1 c7 23 cf 86 ad bf
       -0.09180277716245996 -0.05766913711332491
000030 50 da 85 75 69 2e c6 bf d1 8b 06 38 e9 e2 aa bf
       -0.17329138029500024 -0.0525124436274137
000040 ab 26 13 a5 d8 b3 bc 3f 3e e2 2f d3 f2 aa c0 3f
       0.11211923627993296 0.13021693527095296
000050 5c 98 9b 61 41 2b ab bf c4 fd d9 e4 5e 6c a0 3f
       -0.05306438747884165 0.03207680266950377
000060 aa c4 e3 8b 75 48 b0 3f 13 68 4b 1e d3 15 bb bf
       0.06360563912655218 -0.10580176820386127
000070 8f 9d 46 7c 76 f8 b7 3f 13 e6 92 3d 3f 9f c1 bf
       0.0936349919708077 -0.13767233377966245
000080 5c a1 d7 99 4e f3 bc bf ae 19 f1 9b e7 69 a3 bf
       -0.11308757072368308 -0.03791736391626742
000090 fe 4f df 62 06 08 bc bf 28 d1 ae e6 82 0d c5 3f
       -0.10949745096087324 0.16447483314335298
0000a0 47 18 e7 22 2e 33 b0 bf f7 5c 64 00 f9 9c c1 bf
       -0.06328094818226858 -0.13760292548315764
0000b0 65 fd 42 4a 10 80 bf 3f d6 de a0 1b 88 60 aa bf
       0.12304784596471093 -0.05151772820721383
0000c0 13 17 97 ba 8b 57 b6 3f cc 44 8c 18 7f 3c c6 bf
       0.08727334313797667 -0.1737212056982912
0000d0 2c a8 94 29 c0 eb 90 3f 66 62 e5 0e c7 4d af 3f
       0.016524317300685862 0.06114027077518784
0000e0 8e b7 44 43 da ac 94 bf 94 e8 2a d1 e3 d3 b9 bf
       -0.02019063029836548 -0.1008894334471811
0000f0 8a 26 9b d7 de 3a bf bf b2 ea 21 4e f1 71 c5 3f
       -0.12199204219646212 0.1675397521501814
000100 a8 45 12 65 19 fd b6 3f 39 52 fa 58 2c e0 c3 3f
       0.08979948728144527 0.1552787241422651
000110 29 dc d2 23 90 6e c0 bf 33 4f 8d 9e d4 0c c3 3f
       -0.12837411641314248 0.1488290571384084
000120 51 9d 1e 27 0d bb 98 bf 08 00 b1 d9 9e ff c2 3f
       -0.024151044380827106 0.14842591886008472
000130 60 e7 2a 93 a2 ec b1 bf 71 59 0b 80 05 c6 91 bf
       -0.07001701443632902 -0.017356954517560867
000140 2c 64 cd da 3a 8c bf 3f 30 25 6a 46 fd 42 c5 bf
       0.12323348848202959 -0.16610685289587357
000150 b8 e3 89 43 f2 05 c6 bf 38 51 1c 0f df d3 b4 bf
       -0.17205646798882213 -0.08135789984618647
000160 98 b4 4a da b4 3f b3 3f b6 60 7c 05 19 be a8 3f
       0.07519083337202159 0.048325330657634266
000170 39 d3 02 24 c6 fc b5 bf 71 21 54 66 df e8 b6 3f
       -0.0858882749478881 0.08949085472352693
000180 f7 40 8b 51 0b fa 9c bf d6 a2 0c a7 52 26 c0 bf
       -0.028297592975662558 -0.12616952091891304
000190 8a 8e e3 c1 fa d1 c0 bf 70 4b 4a 32 fc 6b 9c 3f
       -0.13140806643706454 0.027755680627318424
0001a0 00 7e fc f6 66 dc be 3f cb ed 7f 04 7d f8 c5 bf
       0.12055057077349574 -0.17164576263154027
0001b0 12 3e 33 02 c8 f0 9c 3f b2 ab 92 be 91 4e ba bf
       0.02826225770405528 -0.10276137259158594
0001c0 64 3f b5 f3 86 86 b2 bf e9 6a 60 4d 3c 94 91 bf
       -0.07236522149946506 -0.01716703626889685
0001d0 75 b7 53 08 ce a0 c2 bf 6c 80 27 ee ff 32 ba bf
       -0.14553237349121742 -0.10234069408716245
0001e0 0a e4 08 18 2c 9a c2 3f e5 89 4d 6e 93 c8 c4 bf
       0.14532996343203336 -0.16237109075434755
0001f0 c2 4e 07 d4 70 da b3 bf bf 12 28 0b 23 01 b8 3f
       -0.07755189110258257 0.0937673475492131
000200 de cd 0a 21 44 a9 a4 bf 84 73 ae dc 80 f4 c0 bf
       -0.0403538980803224 -0.13246165061437065
000210 1e f9 5c f5 90 69 c3 3f 15 fa 4d 4e 4a 50 c4 bf
       0.1516591260969528 -0.1587002642008463
000220 b6 f5 31 10 81 93 ab 3f bb 7d 3d 8a 7a 09 a0 bf
       0.053859742381046 -0.03132231652738989
000230 48 ab 70 f8 ea 68 b7 3f 82 6e c9 0e e1 97 c4 3f
       0.09144466939384899 0.16088498327268402
000240 69 55 da 6b 64 c8 bc bf 9e f3 6f cf 0a d0 a0 3f
       -0.11243274338842969 0.0328372362346052
000250 13 84 fc fc 2b f6 ae 3f 2f 27 c9 69 96 b6 be bf
       0.060471892006042215 -0.11997356493625654
000260 20 89 0b ad ba 38 92 bf d6 36 3e 3d b8 94 c2 bf
       -0.017794529735405296 -0.14516356459028285
000270 59 3b 51 2e 00 d8 92 3f ec 88 89 e3 1e de c4 3f
       0.01840210230539738 0.16302858457772318
000280 9b c1 43 a8 5a c6 a3 3f e2 a5 14 74 8e 09 b0 3f
       0.038622696914788444 0.0626458199882545
000290 a7 06 8b d0 86 9f 8b 3f bb aa 84 25 ec 58 a9 3f
       0.013487866629819335 0.04950654943453033
0002a0 00 04 1e f1 6d 5a c1 3f 10 1a 5a 9b 24 1b bf 3f
       0.13557218812277938 0.1215079192425963
0002b0 53 5c 53 c4 50 c5 86 bf 3f 62 af 0e ca 56 c3 bf
       -0.011118536940939594 -0.1510860988335185
0002c0 30 c5 76 43 24 48 9d bf 88 b2 b3 20 13 c7 b6 bf
       -0.02859551107184649 -0.08897513912570265
0002d0 01 bf 8d d0 40 b0 be 3f 14 24 3c eb 02 56 86 bf
       0.11987691012995684 -0.010906241229820458
0002e0 24 dc 46 fb bd 30 b9 bf 56 d8 59 ce 70 ae c0 3f
       -0.09839999565780083 0.1303235061238321
0002f0 2e 20 59 a1 11 22 be 3f 71 09 43 31 f1 42 a8 3f
       0.11770734967387916 0.04738572813359355

5.bias f8 [3]
000000 4a 51 5f fb 72 1e bf 3f 3d 9a 38 94 51 f8 b3 3f
       0.12155836712856175 0.07800779217414174
000010 44 59 b4 08 ac 36 80 3f
       0.007916778579368462

step f8 []
000000 00 00 00 00 10 59 f8 40
       99729.0

exp_avg f8 [32, 3]
000000 af f6 5b db 99 4d b8 c0 89 5d 0b e2 2b e5 9b 40
       -6221.601003406263 1785.2928544784393
000010 b6 d0 e0 97 29 b4 b7 c0 4f 9e 3a f4 99 5b a2 40
       -6068.162473727183 2349.80069144423
000020 8c 5c ff 4d e2 7b ba 40 bc 6c b4 4e 94 92 78 c0
       6779.88400264749 -393.1612078712312
000030 ac 17 0a b4 55 75 b1 c0 38 53 92 8e 31 54 cc c0
       -4469.334778433589 -14504.387163439402
000040 73 d4 ea ee d5 f3 b4 40 e6 da 61 37 d1 ff a5 40
       5363.835676838748 2815.9086256580076
000050 1f ca 15 f6 5f 89 93 c0 03 be 38 49 c6 70 a4 40
       -1250.3437121777167 2616.387277386851
000060 b0 07 68 d9 07 7e aa 40 fc d9 39 97 3a 48 c2 40
       3391.0153305539498 9360.457740050733
000070 04 03 cd fc 57 f0 a1 c0 30 b9 35 ea f8 be 94 c0
       -2296.171850592249 -1327.743080939701
000080 21 e3 1b c8 0a 7d b4 40 43 a4 f9 15 4c 13 c7 c0
       5245.0421159200205 -11814.594420628744
000090 33 fc 51 f6 05 e0 b1 40 d2 5e 10 6c 4e de b5 c0
       4576.023289798805 -5598.30633642497
0000a0 c6 91 1f 11 f3 04 b5 c0 b3 07 f0 06 4e 09 8a 40
       -5380.949480031099 833.1630991699552
0000b0 60 83 87 db b1 48 93 c0 a2 44 e1 23 1c b6 b3 c0
       -1234.173689000505 -5046.109922484642
0000c0 16 53 7c 69 23 f3 bc 40 03 04 1f 3f 27 26 a7 40
       7411.1383283331725 2963.0766534511945
0000d0 3c 64 a1 ed 11 5f b6 40 e6 be f2 3e 29 19 b9 40
       5727.070032202693 6425.161116763693
0000e0 7b 46 d5 f9 71 ba a1 40 86 67 47 ff 9a 30 c1 40
       2269.222609200338 8801.210915494488
0000f0 0c 27 b6 36 74 ca b0 40 e1 4d cd 1f 7a 6a a7 c0
       4298.453959831746 -2997.238523879773
000100 4d 78 ec d0 64 97 bc 40 20 b1 22 4d a9 9b b9 40
       7319.393812922831 6555.661333244556
000110 62 7b 0a 37 be 18 bc c0 93 fb ed 41 4b bb a6 40
       -7192.743027358172 2909.646987378082
000120 f9 5b 40 07 dc 48 87 c0 e7 4c f9 a0 b4 f9 a1 c0
       -745.1074357059543 -2300.852790632856
000130 7f 74 ee 81 6e 79 a3 c0 a2 a6 2f c2 f7 f5 b4 40
       -2492.715835048409 5365.967806795294
000140 70 56 79 a6 d9 73 a2 40 1c ed 53 60 5e 9e 7d 40
       2361.925098220636 473.89804108413387
000150 2c 05 e2 8a bf b5 bd c0 a6 a1 13 52 c9 0f a1 c0
       -7605.7482129347445 -2183.893204320414
000160 b0 d7 bc 73 3b 96 c3 c0 1a ce 64 4e 6d 8b b5 40
       -10028.464469533268 5515.426977443998
000170 67 b1 81 3b 03 2b c7 40 cb 98 64 e2 2b 1c 90 c0
       11862.025253497717 -1031.0428558080919
000180 c2 d7 e4 80 14 5c 95 40 4e 63 85 24 ff bc 7d 40
       1367.0200229412735 475.8122906885591
000190 3a 43 b0 0d 2a 9a a8 40 02 bb c5 b7 2e 25 63 c0
       3149.082135685164 -153.1619528638767
0001a0 22 20 30 8c 06 03 af 40 57 45 f6 51 36 dd c8 c0
       3969.5127882994866 -12730.424376281602
0001b0 90 33 c2 08 4c f6 cd 40 00 f3 f7 ec 6f 6e b5 40
       15340.594017291238 5486.437209603144
0001c0 51 06 81 1a 45 9b b4 40 58 b5 64 cf 07 94 bb c0
       5275.269935668985 -7060.030508322023
0001d0 57 79 4a ba 73 30 b0 c0 81 2c a1 d5 02 7d c7 c0
       -4144.452061323761 -12026.02214445756
0001e0 d3 66 cd 93 12 97 b4 40 d9 24 24 61 e4 eb 9b c0
       5271.072567784885 -1786.9730268142214
0001f0 dd b0 1a f2 34 9b 90 c0 fb 8d 3e 3c 40 d5 d4 c0
       -1062.8017048044633 -21333.003677023557
000200 40 5e 69 ec d6 af c3 c0 80 01 14 c9 10 ae be c0
       -10079.679089709301 -7854.065568209044
000210 a7 73 85 47 d9 63 d2 40 94 b9 86 e9 e5 f0 85 40
       18831.394990313474 702.1122618222603
000220 fa f7 1a 4d 3b cf c8 40 b4 1f cf 18 da d4 c1 c0
       12702.46329056843 -9129.70388211296
000230 0f bb 7a 79 b5 ca c7 c0 14 e4 85 9a 79 e4 ad c0
       -12181.417769757592 -3826.2375070420185
000240 af bc 75 0c a8 f5 c0 c0 35 f3 2a 30 0f 26 b9 c0
       -8683.312880246287 -6438.059328731896
000250 66 6f af f7 04 64 b3 40 9b 95 67 19 68 0c 9b 40
       4964.019404377648 1731.1016594109594
000260 b3 17 9d e0 72 2b b7 40 44 39 5d 58 6a 19 c0 40
       5931.448739832197 8242.830821660005
000270 d2 1e 43 88 a9 1c a0 40 ea e9 4d d0 0b 65 b8 40
       2062.331117723 6245.046147222145
000280 bd bf c4 86 7e cc c3 c0 6f 25 c4 c5 23 de d7 c0
       -10136.988487809775 -24440.558945690686
000290 7d ef bb 34 02 36 a5 40 fd 98 c1 14 04 d1 c5 c0
       2715.00430857943 -11170.031883430196
0002a0 47 a7 ed 44 06 c7 ae c0 6e bf 6e a2 b8 ce b8 c0
       -3939.512244631452 -6350.72122852491
0002b0 0a 5b c1 c2 d2 2a 8c c0 28 e3 2a 62 86 f6 b1 40
       -901.3529105287464 4598.524935417612
0002c0 04 23 6c 96 61 e2 7f c0 b5 bb dd cd 13 d8 c2 40
       -510.14882509461336 9648.154720036177
0002d0 e2 26 96 0e 67 1c c3 c0 65 aa 2f 30 60 d9 88 c0
       -9784.805132645593 -795.1719669078708
0002e0 5a 7d a3 a1 71 50 c6 c0 9b 50 18 3e 03 07 d2 40
       -11424.887745319564 18460.050664976803
0002f0 b5 6b 8b 02 68 67 b1 c0 21 2c 3c c8 b2 13 c3 c0
       -4455.406288827701 -9767.396735688731
